g.dn0.onnx (onnx, 267418 bytes, 8 tensors)

decompress.0.bias f4 [64]
000000 a9 72 5a 3e a8 3c 98 3d 16 53 91 bd a8 9d fd bb
       0.21332802 0.07433444 -0.070959255 -0.0077397414
000010 19 2f 47 3a 83 bb c5 3d 69 cc 96 3d 52 fe 3c bb
       0.00075982657 0.09654906 0.07363207 -0.002883811
000020 a3 e4 e5 bc f9 ee 2f be 53 80 e2 ba 6a e2 71 bd
       -0.028063124 -0.17181005 -0.0017280675 -0.059053816
000030 4e 75 2d 3a 5d 11 e5 3c d7 6a 88 bf 61 49 80 3e
       0.0006616906 0.027962381 -1.0657605 0.25055984
000040 7b c6 90 3d 0e 70 09 be 3d 99 ad 3d a9 4f 1c be
       0.07069107 -0.13421652 0.084764935 -0.15264763
000050 f7 da 9e 3d f0 cc 56 bc fd 34 dc 3c 7b 69 f3 ba
       0.07756608 -0.013110384 0.026880736 -0.0018570864
000060 42 86 29 bb 3c 78 93 bf 35 fe 9d 3d 1e 98 6b 3d
       -0.0025867377 -1.1521068 0.07714502 0.057518117
000070 0c fb d9 3d 5f 4e 93 bf c3 28 dc 3d 3f 79 b7 bd
       0.106435865 -1.1508292 0.10749962 -0.08958673
000080 42 36 88 3d 2a fd 35 be c3 d0 6a 3d 2b 07 9e be
       0.06650974 -0.17772356 0.057327997 -0.30864844
000090 4e 3d f6 3b 11 7a 81 3d ab b0 13 bb 23 0a 6f 3d
       0.0075146323 0.063221104 -0.0022535722 0.058359277
0000a0 4d 8b fa 3d 87 2f 63 bd c7 57 93 bd d4 52 f7 b8
       0.12233601 -0.055465247 -0.071944766 -0.00011793306
0000b0 f3 0e f1 3a b0 7a 86 bf 2f 79 09 be 08 fa 05 bc
       0.0018391296 -1.0506191 -0.13425134 -0.008177288
0000c0 2a 1b 5f 3d e3 89 90 3e 4a 60 3e 3e 17 fe 72 3a
       0.054469265 0.282302 0.18591419 0.000926943
0000d0 55 59 dc 3d fa e9 71 bd 5c f9 0f bf c7 f1 e4 bd
       0.10759226 -0.059061028 -0.5623987 -0.11178928
0000e0 40 11 83 3a 9b b3 98 bc fe 25 a9 3d 23 d7 ab bc
       0.0009999648 -0.01864033 0.082591996 -0.020976609
0000f0 15 01 40 3b af 7c 52 3b 3e 09 21 3d f2 74 0e bc
       0.002929752 0.0032117774 0.039315455 -0.008694874

decompress.0.weight f4 [64, 3, 5, 5]
000000 12 7c 5d 3d 01 ad 0a 3d c1 29 23 3c 8d f1 12 3d
       0.0540734 0.033856396 0.009958685 0.035874892
000010 14 c8 48 3d 77 17 15 3d e0 81 4a bc 7e 26 49 3c
       0.049018934 0.03639933 -0.012360066 0.012277244
000020 22 e0 e4 bc 39 23 76 bb 91 c9 dd 3c 79 55 33 3d
       -0.027938906 -0.0037557615 0.027073653 0.043782685
000030 00 06 7e bc ad 72 0c 3d 11 d0 fa 3c 3b a9 2a 3d
       -0.01550436 0.03428905 0.030616792 0.041665297
000040 62 93 54 3a a4 95 bc be 00 ff c2 bd bf b2 97 3d
       0.000810912 -0.36832917 -0.09521294 0.0740714
000050 a3 15 70 3d 0b e2 8d bc c7 ac 2b 3d 6d ae a8 3c
       0.058614384 -0.0173197 0.04191282 0.020590985
000060 b7 d3 c4 3d 49 9b 57 bd ec ef 04 bd 88 fc 69 bc
       0.09610694 -0.052638326 -0.03245537 -0.0142814
000070 b6 c5 06 bd 6a c9 a9 bc 0a f2 32 bd 1d 57 d3 3d
       -0.032903396 -0.020725925 -0.043687858 0.1031935
000080 c9 b3 54 3d d6 70 0d 3d 23 59 d6 36 3a bb d0 3c
       0.05192927 0.034531437 6.388074e-06 0.025479902
000090 40 5b a7 bd 24 45 be be 0b 02 13 bc 93 03 7b bc
       -0.081717014 -0.37162125 -0.008972655 -0.015320676
0000a0 c2 d0 96 bc ba d0 14 be a0 30 b8 bf 23 63 36 be
       -0.01841009 -0.14532748 -1.4389839 -0.17811255
0000b0 27 8c 0b bd 96 c3 e1 bd f2 cf 93 3d 99 94 1d be
       -0.034069207 -0.11023633 0.07217397 -0.15388717
0000c0 ce 85 91 3c a5 d1 d1 bd 9f 1d e5 3c 8f 53 97 3b
       0.017763998 -0.10245065 0.027968226 0.0046181153
0000d0 de cf 4f 3c 7d b5 37 3c 81 93 61 3c 7a 32 5c 3d
       0.012683837 0.011212704 0.013768078 0.053759076
0000e0 c8 a2 23 bd 81 d3 c3 3d 80 ab 04 bd b0 89 39 bc
       -0.039950162 0.095618255 -0.032390118 -0.011324331
0000f0 4a fc 68 3d b2 45 0c 3c 02 dd 83 3c a4 ac 3d 3d
       0.056881227 0.0085615385 0.016096596 0.04630722
000100 6c 04 36 3d 2e 48 3b bc ed 63 0d bc 71 fd a6 be
       0.04443781 -0.011430783 -0.008629781 -0.32615235
000110 ab 59 b2 bd ab 18 97 3d 97 76 4a 3d a0 80 60 3d
       -0.08708509 0.07377752 0.049429502 0.054810166
000120 94 ce 33 3c 04 9e 6a 3d 26 19 6f 3d 23 34 a6 3d
       0.010974545 0.0572796 0.058373593 0.08115413
000130 c3 68 8c 3e fb 43 a6 3e 4b 8e 03 3e 2c 61 05 3e
       0.27423677 0.3247374 0.12847249 0.1302535
000140 15 59 ca bc ae a0 31 3e 9e 27 37 bd 28 e3 ce 3a
       -0.02470068 0.1734645 -0.044715516 0.001578425
000150 5c 25 2c bc d3 02 da 3d c8 f8 2b be fd c4 5b be
       -0.010506954 0.1064507 -0.16794121 -0.21461864
000160 39 65 12 3e 4f 5f 72 bd 4f da cf 3c 4c 6f 97 bd
       0.14296426 -0.059172925 0.025372652 -0.07394275
000170 47 73 67 be c1 3b 4b be 2f 81 6a 3d 8b ba 53 be
       -0.22602569 -0.19847013 0.057252105 -0.20676629
000180 22 b8 0e bd 25 07 0a bd 4a 69 86 bd 2d 6f 3f bd
       -0.03484357 -0.03369822 -0.06563051 -0.046736885
000190 56 1e e7 bd 73 6b 3f bd 08 2e 98 bc 80 e5 14 be
       -0.11285083 -0.04673333 -0.018576637 -0.14540672
0001a0 31 77 04 be 2e ca 35 bd 8f a7 b8 3d e8 3f 73 be
       -0.12936093 -0.044382267 0.09016334 -0.23754847
0001b0 c5 70 a0 3c db 2e b4 bd ec 0b 56 bd 63 06 75 3d
       0.019585023 -0.087979995 -0.052257463 0.059820544
0001c0 e6 67 10 3e 19 04 c1 3d ec 4e 50 3d 52 7c 0a 3d
       0.14102134 0.0942461 0.050856516 0.033809967
0001d0 bc 03 0d be 87 d0 eb 3d 5f 9e 53 3c c9 a6 eb bd
       -0.13770956 0.11514383 0.012916177 -0.11506421
0001e0 ed 1d 33 3e f2 a5 1c 3d 1a 67 93 3d 94 59 0a 3e
       0.17491885 0.038244195 0.071973994 0.13510734
0001f0 12 d3 a7 3d 54 40 8f 3d a4 02 92 3d 77 49 17 3e
       0.08194555 0.069946915 0.0712941 0.14774118
000200 f5 71 3a 3d e4 08 ce 3d 70 1a 76 3c 91 03 9b bd
       0.045518834 0.100602895 0.015020952 -0.075690396
000210 af 69 47 bd 6e c1 ba bb 32 1e 5f 3d a7 62 d5 bb
       -0.048684772 -0.005699328 0.054472156 -0.0065120044
000220 e6 a7 63 bd b2 8b af 3d 8c f8 10 bd 3e 7b bb bc
       -0.055580042 0.08571567 -0.035393283 -0.022885915
000230 c4 b2 90 bc a0 fa fd bd 91 eb 27 3d 6d 79 ca bd
       -0.017663367 -0.124013186 0.040996138 -0.098864414
000240 18 60 26 3d 16 b1 80 bd 2f f2 91 bc 0b b9 51 bd
       0.040618986 -0.062837765 -0.017815677 -0.05120186
000250 7e 9e 80 3c bd 65 85 bd 88 15 f1 bd bd 18 18 bd
       0.015700575 -0.06513546 -0.11771685 -0.037132967
000260 b3 09 24 3e ff a9 4c 3c 65 62 94 3d 20 43 b5 3d
       0.16019325 0.012491702 0.0724533 0.08850694
000270 99 d3 3f bd 2a 1e 25 3e 96 94 16 bb 5b 5a a5 bc
       -0.046832655 0.16124788 -0.0022976748 -0.020184686
000280 df 7d 24 3d 30 1b d6 3d c9 bb 78 3e 77 b2 37 bd
       0.040159103 0.10454404 0.24290384 -0.04484793
000290 cf bc 4b bd 71 71 d4 bc 9f 03 8f bd b1 95 9b bd
       -0.04974061 -0.025933 -0.069831125 -0.07596911
0002a0 79 e3 3f be c6 22 1c be 55 41 87 3d 8d fb 1a bc
       -0.18739118 -0.1524764 0.06604258 -0.009459388
0002b0 37 34 bf 3c cb b3 d4 bd db 51 4d 3c 1f 88 52 bb
       0.023340328 -0.10385855 0.012531723 -0.0032124592
0002c0 f4 ab 5e 3d 2b 31 10 3e fa e5 4c 3d e9 04 81 3d
       0.054363206 0.14081256 0.05002401 0.06299765
0002d0 ee 81 23 3b a2 e0 1c 3d 8a c0 40 3e 20 70 c2 3d
       0.002494927 0.038300164 0.18823448 0.094940424
0002e0 a0 d3 a8 bd 16 13 41 3d 1b 4e 53 3d 9a bb 9d 3e
       -0.08243489 0.047137342 0.05158816 0.3080719
0002f0 5d d6 fa bd 7b 01 87 be e6 c0 88 3d ab ca 8e 3d
       -0.12247918 -0.26368317 0.066774175 0.069722496
000300 ab 38 bd 3c f2 7f a7 be 47 2c 85 be 45 ca 27 bd
       0.02309831 -0.32714802 -0.26010343 -0.040964384
000310 da 08 84 bc 2e 2f cc ba d8 52 eb bd be fd 89 ba
       -0.016117502 -0.0015578025 -0.114904106 -0.0010527892
000320 9c 37 87 bc d8 2f 60 bd cd c1 12 bd 0d 7d ff 3c
       -0.016506009 -0.054733127 -0.035829354 0.031187559
000330 45 bb ca bd 51 1b bd bc 68 89 5e bd cf de 15 3e
       -0.09899 -0.023084315 -0.05433026 0.14635776
000340 53 21 dd bb ae 85 a1 bc f1 11 81 bd c4 17 03 3e
       -0.0067483573 -0.019717064 -0.0630225 0.12802035
000350 78 82 2e 3e 4f fc d3 bd f7 8f 1a bd a6 09 99 bc
       0.17041957 -0.103508584 -0.03773495 -0.018681359
000360 0c 8e 8e bc bd 69 d9 3a 23 eb dd bd 16 d7 25 bd
       -0.017401718 0.0016587299 -0.108358644 -0.040488325
000370 40 0f ca 3c 0d 76 3a bd e5 72 b4 3d e4 17 39 bd
       0.024665475 -0.04552274 0.08810977 -0.0451888
000380 6d 88 e6 3d b4 a1 9a 3e 11 1a 3b bc 18 ad 8a be
       0.1125649 0.30201495 -0.011419789 -0.27085185
000390 e7 b5 a6 3d d2 71 0b bd 67 76 07 3d 4b 8e a5 3e
       0.08140164 -0.034044094 0.0330719 0.32335123
0003a0 37 2f df bd 92 bb 40 3c 90 16 72 3c 5b 27 7f be
       -0.108976774 0.01176347 0.014775887 -0.24917357
0003b0 3d c4 05 be 84 d9 f3 bc fe c4 35 bc 40 a3 0b 3e
       -0.1306314 -0.029766805 -0.01109433 0.13636494
0003c0 99 6b 34 3d 1e ab da b9 1d 77 85 3d 1e 3f 9a be
       0.044047926 -0.00041707692 0.0651686 -0.3012628
0003d0 b7 90 03 3e 6a 03 3c 3d f0 92 9d bc a1 ed 91 3d
       0.12848173 0.045901693 -0.019235104 0.07125402
0003e0 e7 4b 45 bd 6c 53 bb bd ca 79 97 3e 43 3c f0 bc
       -0.04816809 -0.09146771 0.29585105 -0.02932561
0003f0 d5 71 b9 be a3 cf 95 bd ea e4 c6 3c 4b 04 1f bd
       -0.3621966 -0.07314994 0.024279077 -0.038822453

decompress.2.bias f4 [64]
000000 c7 2c 29 3e 90 16 82 bd 95 24 ae bc 3c 0b 1e 3c
       0.16520987 -0.0635196 -0.021257678 0.009646233
000010 68 4c 5c bb 9d 92 bc bc 60 b9 f6 3c 7e f5 8c be
       -0.0033614878 -0.02301913 0.03011769 -0.27531046
000020 d9 55 48 bd 1b 35 0d 3d 5e 0e 0b bd b6 57 93 bb
       -0.048909996 0.034474473 -0.03394925 -0.00449654
000030 46 15 10 bd 44 45 d1 bc d2 f4 3f bd 13 07 a1 3c
       -0.035176538 -0.025545724 -0.04686434 0.019656694
000040 8f 3a 17 be 19 32 a2 bd 6e 6e db 3d 8e 2e 94 3d
       -0.14768432 -0.079197116 0.10714422 0.07235442
000050 eb 20 4e bc 70 2a 20 3d 9e 17 57 bd 32 46 3d bc
       -0.01258109 0.03910297 -0.052512757 -0.01155238
000060 a5 08 2d bd 4d 68 46 3d 11 25 2f bd 26 79 94 bb
       -0.042244572 0.048439313 -0.04275996 -0.0045310436
000070 6f e6 44 bd 8e 22 e1 bd bf e8 89 3b fe e7 0e 3e
       -0.04807132 -0.10992919 0.0042086537 0.13955685
000080 e8 ec 01 3e c0 90 ae 3d 8f cb 18 3d de d9 36 3e
       0.12688029 0.085237026 0.037303504 0.17856547
000090 05 1c 16 be 9a 6f 53 bd 4a 20 6b 3c 6f 2f 78 bd
       -0.14659126 -0.051620103 0.01435096 -0.06059211
0000a0 2f 19 11 3e 16 ed a6 3d 37 1c 9b 3d 8e ac 1d 3e
       0.14169763 0.08150689 0.07573741 0.15397856
0000b0 55 07 aa 3d 3e 85 96 bd 93 77 eb 3d e9 5f c3 bc
       0.0830218 -0.07349633 0.11497416 -0.023849444
0000c0 eb a4 f2 bd 85 13 5e 3d 2a 96 32 3e 57 ea 3b 3d
       -0.11847862 0.054217834 0.17440096 0.04587778
0000d0 44 f2 c6 bd 50 f5 bc bd 38 d7 92 bd 8d 37 88 bd
       -0.09714177 -0.09226477 -0.07169956 -0.066512205
0000e0 79 57 0a 3e e2 92 81 3d 2a ea bc bd cf 0b ad bc
       0.1350993 0.06326844 -0.09224351 -0.021123795
0000f0 0d 6a 4d bd 40 33 f6 bc 1d d7 f7 bc df 0f 26 bd
       -0.050149966 -0.030053735 -0.030253941 -0.04054248

decompress.2.weight f4 [64, 64, 3, 3]
000000 ce 26 28 3b 24 de 0c bc a2 47 5d 3e a1 2b 03 bd
       0.0025657895 -0.008597884 0.21609357 -0.03202403
000010 3f 71 85 be 5d 83 e5 bd b2 ce 71 be 65 46 18 3d
       -0.26062962 -0.11206696 -0.23614004 0.03717651
000020 2e 44 bd bd e1 ea af 3d bc 90 ca 3d e5 0b 3d 3c
       -0.0924152 0.085897215 0.09890887 0.01153848
000030 42 27 e2 3c 94 c3 df bc b3 f6 00 bc f0 50 16 bd
       0.02760661 -0.027314939 -0.007871318 -0.03669828
000040 96 47 39 3e 97 62 ae 3d a1 72 e2 bd 32 15 8f bd
       0.18093714 0.08514898 -0.1105702 -0.069864646
000050 a2 be 96 3d f7 b1 9e 3d 6c e5 1a 3d fb 24 bb 3c
       0.07360579 0.07748788 0.03781645 0.022844782
000060 33 a0 5d 3d 00 c2 57 3d b2 eb 8b 3c 25 91 81 3b
       0.054107856 0.052675247 0.017080162 0.00395407
000070 aa 8d 12 be 04 e8 f0 3c 67 89 f5 bc b2 a1 31 3d
       -0.14311853 0.029407509 -0.029972745 0.043367095
000080 d5 a5 52 bd 51 a5 2a 3d 37 68 0f bc 7e 5e 06 bc
       -0.05142768 0.041661564 -0.008752874 -0.00820124
000090 56 e4 41 bd 61 3e 59 bd dd bf 74 bc 9b 2f 7c be
       -0.0473369 -0.053038005 -0.014938322 -0.24627535
0000a0 67 40 5e 3e f2 68 f8 bd 06 b4 55 bd 14 22 0b 3d
       0.21704255 -0.12129392 -0.052173637 0.033968046
0000b0 4d 36 17 3e 42 3c 4e 3b 39 25 f5 3d a3 cc 8c 3e
       0.14766808 0.0031469022 0.1196999 0.27499875
0000c0 22 53 6e be 88 43 8a 3d ef 30 6a bc 33 8e 0e 3e
       -0.232739 0.06751162 -0.014293893 0.13921432
0000d0 e6 9f 84 be 52 f0 4d bd 1a d5 bd ba a8 75 f7 3c
       -0.25903243 -0.050278015 -0.0014483065 0.03020747
0000e0 e1 73 2d 3c 10 a1 6c 3d 56 57 bf 3d 55 3c 7a 3c
       0.01058671 0.05777079 0.0934283 0.015273173
0000f0 3d cf 68 bd 7a d7 07 ba 9e 48 77 bd 4a af 80 3c
       -0.056838263 -0.000518195 -0.060371988 0.015708584
000100 fe 0d 2e 3e f2 de 1c bd 67 7e 5c bc 16 3e 59 3e
       0.16997525 -0.038298555 -0.013457871 0.2121509
000110 7e e3 83 3d 33 0f a1 bd 10 14 4c 3d 94 3e 85 3d
       0.06439875 -0.07864227 0.04982382 0.065060765
000120 86 0a 90 bd 4b c9 aa 3d aa b6 a7 3c cc ac 41 bd
       -0.07033257 0.08339175 0.020472843 -0.047283933
000130 c2 b3 b9 bd 60 3c ee 3d 8d 93 c1 bd 05 f6 6a 3c
       -0.09067489 0.11632609 -0.09451971 0.014340882
000140 37 51 9a bc 8f d2 b0 bd cf 43 f4 3d db 1c c8 bc
       -0.018837554 -0.08633911 0.11926996 -0.024427822
000150 c3 5d 19 3c 4e ca a3 bd 96 3e 72 3d 76 83 02 3c
       0.009360733 -0.07997571 0.059141718 0.007965913
000160 c4 eb f0 bd 08 a8 62 be 19 2a b9 bd 51 94 b5 3b
       -0.11763719 -0.22134411 -0.090412326 0.0055413623
000170 5d 6a ec ba 07 0c 22 bd 32 b3 86 bc 95 f9 b9 bd
       -0.001803707 -0.03956225 -0.016442869 -0.09080807
000180 0a 20 f8 3c 7b a9 a8 bd 6f 28 48 3d d6 d4 e2 bd
       0.030288715 -0.08235451 0.048866685 -0.110757515
000190 28 99 14 3e f7 a8 be bc a2 b8 28 3d 87 06 25 be
       0.1451155 -0.023273928 0.041191705 -0.16115771
0001a0 32 f7 2e be 23 e1 55 bd b3 53 40 3d 58 fb 87 bc
       -0.17086485 -0.05221666 0.04695482 -0.016599342
0001b0 3d ed 98 3c c3 b6 a0 3d d4 42 0a 3d bf ad 32 bc
       0.018667812 0.07847359 0.03375514 -0.010905682
0001c0 13 c5 06 bc 91 3d e4 bb d6 47 75 3c ec c0 9d 3d
       -0.008225697 -0.006965347 0.01497074 0.077028126
0001d0 8e f8 6e bd 7e ec 9d 3d f9 48 18 3c 5d 77 9b 3c
       -0.05834251 0.07711123 0.009294742 0.018977815
0001e0 22 16 77 3c 74 e0 32 3e 88 92 e2 3c 61 c1 18 3e
       0.0150809605 0.17468435 0.027657762 0.14917518
0001f0 3b aa 0c bd 5c 81 db bb 5e 6f a6 bc 4f 89 df 3d
       -0.034342032 -0.0066987704 -0.020316776 0.109148614
000200 f5 fe fe 3c a0 63 21 3e a8 ce 86 bc c8 e8 22 3e
       0.031127432 0.1576066 -0.016455963 0.15909111
000210 ed 7c 18 bc e7 74 53 3e 89 79 d3 be c0 1b b8 bd
       -0.009307128 0.20650063 -0.4130366 -0.08989668
000220 33 2f 3a bd 4f 5f 3c 3d 9e 85 33 be 7f b3 21 3e
       -0.04545517 0.04598933 -0.1753144 0.15791129
000230 0b f0 80 be e6 7f 30 3d a0 f9 03 be d4 8c 04 3f
       -0.25183138 0.043090723 -0.12888193 0.51777387
000240 04 80 a1 bd fa bc f3 3c 84 88 a6 3b bb dc 01 3e
       -0.07885745 0.029753197 0.005082192 0.12681858
000250 a0 ab 86 bc 46 95 30 3e 75 7e 82 3d e1 5f 57 3d
       -0.016439259 0.17244443 0.06371776 0.05258167
000260 24 c4 b2 bd 35 43 72 be e6 16 53 3c e8 bf 74 be
       -0.08728817 -0.2365845 0.012883877 -0.23901331
000270 c7 fd a5 3d e8 95 9b be 01 f3 55 3e 70 f8 82 3e
       0.08105045 -0.30387807 0.2089348 0.25580168
000280 22 8e 36 3e 1a 68 19 3e 2c f1 5b bc 2f bd b7 bd
       0.17827657 0.14981118 -0.013424199 -0.08971631
000290 5a 81 48 bd 30 0d bf 3c 13 c9 c9 bd 01 eb ac bc
       -0.048951484 0.023321718 -0.09852805 -0.021108152
0002a0 10 5c 90 bd 93 de c0 3a c0 6d fb bd 7c c8 58 3c
       -0.070488095 0.001471477 -0.122767925 0.013231393
0002b0 05 e0 03 3e 8a d5 78 3c 48 a8 e8 3b 10 8c 22 be
       0.12878425 0.01518763 0.007100139 -0.15873742
0002c0 03 b0 bb bc 18 d5 e8 3d 56 3b db 3d 67 71 29 3d
       -0.022911077 0.113687694 0.10704677 0.041367915
0002d0 a6 c5 86 bc 68 79 96 3e 74 89 b2 3d 56 99 87 3e
       -0.016451668 0.293895 0.08717623 0.26484174
0002e0 c9 87 0a bf 8c d7 0a be 50 43 3a be 36 10 cf 3d
       -0.5411344 -0.13558787 -0.1818974 0.10110514
0002f0 2d cb 0c 3e f1 2e 2f 3d 50 17 6f bd 85 06 6e 3a
       0.1374938 0.042769376 -0.058371842 0.0009079951
000300 96 53 c8 3d 50 f2 1b bd 2f f6 9d 3c 45 a7 d5 bc
       0.09781568 -0.038072884 0.019282429 -0.026080737
000310 9d 88 5b bd 10 60 98 3d 11 7b 4a bc 16 2e 71 bd
       -0.05359708 0.074401975 -0.012358443 -0.05888184
000320 b4 52 d6 bc b4 99 ec bd 21 20 90 3b 4f cd a6 3d
       -0.026162483 -0.11552754 0.0043983613 0.08144628
000330 1b 7b 96 bd 3e 53 fd 3d 35 09 24 3e 3e cb 04 bd
       -0.07347699 0.12369393 0.16019137 -0.03242039
000340 d6 11 0b bd 58 26 d0 bd 90 9d 25 bd 54 04 36 bc
       -0.033952557 -0.101635635 -0.040433466 -0.01110943
000350 e9 71 29 3d 4b dd 01 bc 35 d5 8e bd 0e b3 3b 3c
       0.0413684 -0.0079262955 -0.0697426 0.011456264
000360 45 72 96 3c 04 de 57 bd 13 98 99 bc 89 48 41 be
       0.018365035 -0.052701965 -0.018749272 -0.18875326
000370 4a c5 b9 3a 1b a6 81 3d d1 e1 61 3a 6f 0c fe bd
       0.0014173177 0.0633051 0.0008616718 -0.12404715
000380 7b eb 92 bc 74 8b 46 be 8c 77 03 be 9d e2 fc bd
       -0.017934551 -0.19389135 -0.12838572 -0.123479106
000390 7f 5f ce be ea d7 48 3e 76 e6 ca 3d 23 f7 bd be
       -0.40307233 0.19613615 0.09907238 -0.37102613
0003a0 9b 70 d9 3e c8 a8 19 3e 70 6c 4c bd c8 d5 41 bd
       0.42468724 0.15005791 -0.0499081 -0.04732302
0003b0 08 0c 58 bd d1 c6 9f 3c 03 aa d6 bd 07 cc 15 be
       -0.05274585 0.019503983 -0.10481646 -0.14628612
0003c0 67 b7 55 bd cf 53 0a bd 4a 25 a1 ba 74 3d 01 bc
       -0.05217686 -0.033771332 -0.0012294438 -0.007888187
0003d0 9d f6 e0 3c c8 15 70 3c 51 4d 37 bd 5a 89 b6 bc
       0.027461344 0.014653631 -0.04475147 -0.022282291
0003e0 b7 9a 98 bc de 47 87 bd 51 f8 fe 3d f5 19 e8 bd
       -0.018628461 -0.066055045 0.12449706 -0.11333076
0003f0 5f 8e f0 3c 8c 22 eb 3d b9 69 98 be f6 b4 29 3d
       0.029364763 0.11481199 -0.2976816 0.041432343

decompress.4.bias f4 [32]
000000 c7 6f c6 bc 97 10 ba ba 7e c9 aa bd e9 b0 63 bd
       -0.024223221 -0.0014195618 -0.08339213 -0.055588637
000010 a7 02 17 bd 4f 0b 33 3d 44 f5 bc 3d ad c6 88 bc
       -0.036867764 0.043711957 0.09226468 -0.016696298
000020 3f 70 38 bd 3d 9f a3 bb c8 5f 2b bd c3 da ae 3b
       -0.04502892 -0.004993348 -0.04183939 0.005336137
000030 82 c5 5a bd 27 22 90 3c 74 66 b8 3c 91 40 3a bd
       -0.053411014 0.01759441 0.022509791 -0.04547173
000040 24 2c 14 3d ab 85 5d 3b 07 49 ad bd 05 b2 11 bd
       0.03617491 0.0033801596 -0.084611945 -0.035570163
000050 3d 4f 99 bc 84 13 a8 bc 5a 4d dc bc 86 ad 41 bd
       -0.018714542 -0.020517118 -0.026892353 -0.047284625
000060 49 02 be bc d6 33 9b bd 71 d8 1b 3c 4f 82 03 bd
       -0.023194449 -0.07578246 0.009512053 -0.032106694
000070 0f f6 33 3c 87 ce 82 bd 56 57 16 bd 6c 2b db bc
       0.010983958 -0.06387048 -0.036704384 -0.026754104

decompress.4.weight f4 [32, 64, 3, 3]
000000 48 61 e8 bd a4 70 e8 3d 95 85 9c bb e1 6e 8e bc
       -0.1134668 0.113496095 -0.0047766664 -0.017386856
000010 4c d0 ad bd 24 7b c5 3d e4 8e cf bc 2f 03 21 bc
       -0.08486995 0.09642628 -0.02533669 -0.009827419
000020 24 67 8a 3d e8 f1 42 bd 52 ed 06 3a a5 ca 87 bc
       0.06757954 -0.04759398 0.0005147058 -0.01657612
000030 f1 24 49 bd f6 67 e9 bc f2 55 1a bc ba 82 46 bd
       -0.049107496 -0.028491955 -0.009419905 -0.048464514
000040 d1 b8 0f bc 11 08 5c bc 11 41 4f 3c a1 8b 8a bd
       -0.008772091 -0.013429658 0.01264979 -0.06764913
000050 97 ce db 3d 12 06 7b bd 5c 9f 99 3c c0 dd 50 bd
       0.10732763 -0.061285086 0.018752746 -0.050992727
000060 f4 61 52 3d ac 35 1a 3d 9a 00 fa b9 ec 5e 4c 3c
       0.051362947 0.03764884 -0.00047684164 0.012473803
000070 ac c2 27 bd 0e ef bf bc 27 e1 1a ba 7a 1f 25 bc
       -0.040957138 -0.02342942 -0.0005908184 -0.010078305
000080 c1 32 8a 3c a0 64 05 bc fa c3 30 bd 3b bc 21 3d
       0.016869904 -0.008141667 -0.043155648 0.03948615
000090 71 9a cc 3d a9 9e 65 bd 95 fe d5 3d 43 1c 93 3d
       0.09990395 -0.056059513 0.10448948 0.07183125
0000a0 59 56 12 3d 44 61 a2 3d f8 80 52 3d 1e 07 09 bd
       0.03572688 0.07928708 0.051392525 -0.033454053
0000b0 e8 ea 27 bd 58 3b a3 be d1 bb 3c 3e ce 42 05 3e
       -0.04099551 -0.31881213 0.18431021 0.13013765
0000c0 a8 9e 92 bd c1 8e 5a bd 38 fb d3 bd fe 69 3e 3d
       -0.071591675 -0.053358797 -0.103506505 0.0464878
0000d0 66 9d 9f bd e2 d3 f9 3c cd d2 b8 3c fa c8 59 3d
       -0.07793693 0.030496541 0.022561455 0.05317018
0000e0 df c8 da 3d 15 5d a2 3c 7f 7c c8 bd 79 b0 5d bc
       0.10682844 0.019819776 -0.09789371 -0.013530844
0000f0 6e 54 bb bd 4c 13 ad bd 91 f2 8e bd 10 56 95 bd
       -0.09146963 -0.08450946 -0.069798596 -0.07291806
000100 74 ff 7d 3d 4e ea 7c 3a f6 b5 a3 bd 69 18 e9 bd
       0.062011197 0.0009647951 -0.07993691 -0.11381609
000110 7f fe 39 3d 23 2b 30 3d bd a4 0e 3d 81 9c 06 3d
       0.045408722 0.04300989 0.034825075 0.032864098
000120 1c 4c 12 3d b9 77 28 bc 03 27 7e bc 99 9a af 3c
       0.035717115 -0.01028245 -0.015512231 0.021436023
000130 ae ab e3 3b 0c c8 ad 3c 13 67 f9 bb 6d 3b 29 3c
       0.006947956 0.021213554 -0.0076111644 0.01032911
000140 a7 21 e8 bc b8 20 43 bd 3e ca e0 3d 56 57 a1 bd
       -0.02833636 -0.047638625 0.10976075 -0.07877986
000150 b4 94 c3 3c b9 4d 4f 3d 45 52 39 3d a7 e6 f0 bd
       0.023874618 0.05061123 0.045244474 -0.117627434
000160 0a c7 75 3d 62 12 35 3c 18 8a 94 3c b8 11 3f 3c
       0.06000427 0.011051746 0.018132254 0.011661939
000170 64 df 65 bc 8d 7c f8 bc a6 b4 c3 3c 76 fb 0d 3d
       -0.014030311 -0.030332828 0.02388985 0.03466364
000180 a9 17 cc bc 72 68 a3 bb 45 fd 89 3c f1 75 a8 bc
       -0.024913626 -0.004986816 0.016844401 -0.020564051
000190 07 1c 01 3c 37 11 e7 3c 9a fc 4c bb 3a 12 10 bc
       0.007880217 0.02820645 -0.0031278492 -0.008793408
0001a0 b7 9b d3 bc 57 00 ce 3b 93 d8 0d 3d 24 21 d1 3b
       -0.025831087 0.0062866616 0.03463037 0.0063821245
0001b0 9d fd e5 3c 09 5f 15 3b 37 f1 05 3e 6d 72 b9 3d
       0.028075034 0.002279224 0.13080297 0.09055028
0001c0 5a e8 05 bd 9b b8 04 bd cb b7 d7 3a 54 2b dc bd
       -0.03269229 -0.032402616 0.0016457973 -0.10750452
0001d0 9c 57 90 bc 6f f4 17 3d 9a 52 5c 3d 1a a1 19 3d
       -0.0176199 0.037098344 0.053789712 0.037507154
0001e0 a3 ee dd 3c b2 df d6 3c 42 54 d3 3c ac 33 e8 3c
       0.02709133 0.026229713 0.025797013 0.028344952
0001f0 f7 1c da 3c d5 cd d1 3c 38 2c 66 3c bd 58 3a 3b
       0.02662514 0.025610844 0.0140486285 0.002843424
000200 d0 80 b1 bc e8 7b fd 3c da 3f 1c 3c b0 6b eb 3b
       -0.021667868 0.030942872 0.009536708 0.007184468
000210 f0 5b bf 3b e2 5d ed bb 0c 5f 1b 3d 6b 2e 87 bd
       0.005839817 -0.0072438577 0.03793244 -0.066006504
000220 02 76 f2 3c 72 e3 d2 bc a6 a4 6d bd 36 81 bd bd
       0.029597286 -0.02574322 -0.05801835 -0.09253161
000230 6b 6d 48 bd 9d 00 8b 3c d0 99 0a bd 35 9a bd 3c
       -0.048932474 0.016968066 -0.033838093 0.02314482
000240 a9 7c 62 bd b1 12 5b bd 6a ac 9a bd 41 eb 21 3d
       -0.055294666 -0.053484622 -0.075524166 0.039530996
000250 14 8d 91 bd 71 bf a1 bd cb 12 14 bd df 29 9a 3d
       -0.07106987 -0.07897843 -0.036150735 0.075275175
000260 a7 4c a4 3d 40 50 47 bf 29 5f 00 3d 0d 00 5f bf
       0.08022433 -0.77856827 0.03134075 -0.8710945
000270 23 d1 d3 bd 98 99 0b 3c 34 88 d3 bd a1 03 d6 be
       -0.10342624 0.008520506 -0.10328713 -0.41799644
000280 e2 a2 a1 3d 43 65 34 bf 67 49 17 bd ce f1 32 bd
       0.078923956 -0.70467013 -0.036935236 -0.043687634
000290 d4 e3 73 bd 2a ea c0 3d 11 71 83 bc ad 26 43 3d
       -0.059543446 0.09419663 -0.016045125 0.047644306
0002a0 6f 1f 42 3d 70 75 0e 3e d5 8b 06 3d ba a4 b1 bd
       0.04739326 0.13911986 0.032848198 -0.08673997
0002b0 f4 80 b9 3d f3 8a 27 3d 73 f9 aa bd 5c 3f 9a 3d
       0.09057799 0.040903997 -0.0834836 0.07531616
0002c0 3a fa 65 bd 95 e8 0b be dd f5 b4 3d 18 39 12 3d
       -0.056146838 -0.13662942 0.08835957 0.03569898
0002d0 8f 2c aa bc 57 59 a4 bc fc 5a 48 3d 4f ee bf bb
       -0.0207732 -0.020062132 0.048914894 -0.005857266
0002e0 2f b7 58 bc a6 7b 9c bc 28 0c 61 3c d4 fc de bc
       -0.013227268 -0.019101929 0.013735808 -0.027220167
0002f0 fe 3d c6 bc a9 dc 02 c0 3c c7 43 3c 38 ad c6 bf
       -0.024199482 -2.044718 0.011949357 -1.5521612
000300 d9 b2 08 bf 75 fc a9 3b 60 4d 4b be b5 09 f0 bf
       -0.533979 0.005187566 -0.19853735 -1.8752962
000310 17 a6 b4 bc e1 51 ca bf 4f 91 f1 3d c4 54 79 3c
       -0.022051854 -1.5806237 0.117952935 0.015217964
000320 5d bb 7d bc a2 71 91 3b 5d a7 a1 3d 60 0f 84 3c
       -0.015486565 0.004438595 0.0789325 0.016120613
000330 eb c2 3f 3c 52 b4 5a bd 31 42 c1 bc 3c fa 11 bd
       0.011704187 -0.053394623 -0.023591133 -0.035639033
000340 92 c7 64 bc 3a a3 b1 3b 40 28 04 3d 51 33 16 bd
       -0.013963597 0.0054210695 0.032264948 -0.036670033
000350 0a f8 45 bd 80 19 68 bb 09 9a b5 3c a6 fd 59 3a
       -0.04833225 -0.003541559 0.022168176 0.00083156896
000360 b4 a5 20 3c 05 51 34 3c 30 0a f5 bc ff f1 1d 3d
       0.009805132 0.011005645 -0.029912084 0.038560864
000370 09 ae 10 3d 36 cb 80 3c 18 93 26 3c a7 cb f8 3c
       0.035322223 0.015721899 0.010166906 0.030370547
000380 28 0d 63 bb ee 16 44 bd e6 9b df bd 5e 1b 80 bd
       -0.0034645293 -0.04787343 -0.10918407 -0.0625522
000390 0b 9a 43 3d d5 b8 4e bd 9b db bc 3d 56 3f ce bc
       0.04775433 -0.05046924 0.09221574 -0.025176685
0003a0 d2 c1 81 3d 80 b6 b4 3d f7 21 66 be 8d 43 9f 3d
       0.063357964 0.088238716 -0.22473894 0.07776556
0003b0 d9 81 ef bd 20 fc f2 3c 15 ad 56 bd 3b 6c 93 bd
       -0.11694688 0.029661238 -0.052411158 -0.07198378
0003c0 8b 29 22 be 3d 22 de 3d ee e1 2b be f5 cd 92 bf
       -0.1583616 0.10846374 -0.16785404 -1.1469103
0003d0 49 da 22 be a7 d6 79 bf 31 d1 96 bb 37 b7 1e 3e
       -0.15903582 -0.9759316 -0.0046025743 0.15499578
0003e0 ea 9e 40 3c d4 70 74 bf ba f5 ab bc 94 43 88 bf
       0.011756638 -0.9548466 -0.020991195 -1.0645623
0003f0 ae 70 b2 3c ad 04 fa bc c7 31 f6 3c 3f 88 db 3c
       0.021782245 -0.030519808 0.030053033 0.026798366

decompress.6.bias f4 [12]
000000 8d f5 46 bb 0d ba 60 bb c9 7b 4f bb 2f b4 65 bb
       -0.0030358762 -0.0034290582 -0.0031659475 -0.0035050025
000010 f6 c1 a6 3b 45 1a a0 3b 88 ac a3 3b c6 58 a1 3b
       0.00508904 0.004885944 0.0049949326 0.0049239127
000020 a5 bd 03 bc f6 f1 01 bc 42 47 0a bc 65 d7 07 bc
       -0.00804082 -0.007931223 -0.008439841 -0.0082911

decompress.6.weight f4 [12, 32, 4, 4]
000000 be de c4 bc de ad cf bd 78 9e b0 bd b9 0c 93 bc
       -0.024031993 -0.101405844 -0.086239755 -0.017950403
000010 0a ce f4 bc e0 cf 53 bd 6f d2 3c bd c3 a5 be bc
       -0.029883403 -0.051711917 -0.046099123 -0.0232724
000020 e0 39 37 bd 70 ed 7f bd 4f cb 47 bd af 0a 80 bc
       -0.04473293 -0.062482297 -0.048777875 -0.015630094
000030 04 56 67 bc 0c 8e d6 bc e6 81 4f bc 68 62 1f 3a
       -0.014119629 -0.02619078 -0.012665248 0.00060800323
000040 97 f7 ba bc 73 63 0a bc da 87 01 bd 8f 65 fe 3b
       -0.022823138 -0.008446562 -0.0316237 0.0077635716
000050 b6 99 87 bc 69 09 6f 3b a4 ed 01 bb a8 b7 0c 3d
       -0.016552787 0.0036474115 -0.0019825483 0.034354836
000060 31 f7 38 3d 03 17 43 bc 03 fb 40 3d 82 97 5a bc
       0.045157615 -0.011907342 0.047114383 -0.013341786
000070 21 6d f4 3c c8 16 9a bc 4a 59 03 bd 68 4c c5 3c
       0.029837193 -0.018809691 -0.032067575 0.024084285
000080 5e 0c 71 3d ef 95 17 3c bd 5b b6 bc 41 f1 d6 bb
       0.058849685 0.009252056 -0.022260541 -0.0065595214
000090 d5 82 12 3d ce d2 84 3b e6 80 2d bd c8 67 87 3b
       0.035769302 0.00405345 -0.042359255 0.0041322447
0000a0 f4 0c a6 3c 79 73 40 3c c0 29 62 bd 07 5a 5a bc
       0.020269848 0.011746281 -0.055215597 -0.013327128
0000b0 08 3e 63 3a db 09 18 3c 33 b4 43 bd 92 8c 62 bc
       0.0008668606 0.0092796935 -0.047779273 -0.01382746
0000c0 7d b7 b1 3b bc a2 58 ba 7f 68 eb bb b2 f5 08 39
       0.005423485 -0.00082639954 -0.0071840878 0.000130615
0000d0 54 08 45 bd 2c 13 7b bd 16 d2 bc bc 14 7f fe 3b
       -0.048103645 -0.06129758 -0.023049396 0.0077666137
0000e0 0f 23 18 bd 24 f8 8c bc 13 7c 34 3b 79 e8 07 3c
       -0.03714281 -0.017208166 0.0027539774 0.008295172
0000f0 ad 74 03 bc 90 11 54 3b e1 b7 2f 3b 47 54 b0 ba
       -0.008023423 0.00323591 0.0026812481 -0.0013452851
000100 96 56 89 bd 10 8a 92 bd 43 1a 14 bd 22 74 80 bc
       -0.06705968 -0.071552396 -0.036157858 -0.015680376
000110 9b 37 9f bc 8a 83 f9 bb 93 42 d3 bb a3 04 8f bb
       -0.019435694 -0.0076145576 -0.0064471452 -0.0043645664
000120 34 1e 1f 3c bd d3 d6 bb cc 1e 40 38 40 14 c9 3b
       0.009711791 -0.006556003 4.580505e-05 0.006136447
000130 e8 46 c4 3b 2d 79 1b bb 0d f3 a7 3a d6 79 a8 bb
       0.005989898 -0.002372335 0.0012813524 -0.005141477
000140 e4 16 a0 bc 2b d3 c2 bc c9 10 ab 3b 6c 46 de 39
       -0.019542165 -0.023782333 0.005220507 0.00042395608
000150 0c 22 0f bd 69 81 b8 bc 73 2d 94 3c 82 e0 6c ba
       -0.03494458 -0.022522645 0.018088078 -0.000903614
000160 23 cb 41 3c 69 7a bc 3c d2 ab c2 3c da da 75 3b
       0.011828217 0.023007588 0.023763571 0.003751448
000170 47 64 53 3b a0 14 92 3a ec 00 64 ba 64 52 84 39
       0.0032255815 0.0011145063 -0.0008697647 0.00025238388
000180 cf 0d 61 3c 7b ee 11 bb 5a 1d ab bb 07 59 6b bb
       0.013736202 -0.002226739 -0.005222005 -0.0035911219
000190 64 82 c7 bc c9 e6 98 3c cc c4 3b 3c 8b ed 9c ba
       -0.024354167 0.018664734 0.011460494 -0.0011972649
0001a0 1a fc f8 bc 26 9b 82 3c 1d c7 bf 3b 84 e8 b7 bb
       -0.030393649 0.015943121 0.0058525936 -0.005612435
0001b0 5a 12 5c bb b2 1d 37 3b af fa ae ba 0a 25 93 39
       -0.0033580274 0.0027941284 -0.0013349856 0.0002806562
0001c0 05 27 df 3b 98 b0 f2 bc a1 58 38 bc 3a dd e2 bb
       0.0068100714 -0.029625222 -0.0112515995 -0.006923345
0001d0 35 37 8e 3d 0d 66 b6 3c f8 1a 83 bb f0 b8 d2 bb
       0.06944124 0.022265458 -0.0040010177 -0.0064307377
0001e0 ee 00 b0 ba 5d f3 9d bc c2 cd 3d bd 66 d1 32 bc
       -0.0013428011 -0.019281084 -0.046338804 -0.010914182
0001f0 b8 8c ee 3a a1 39 85 bb 88 e0 13 bc 96 9b 1e bb
       0.0018199896 -0.004065708 -0.0090257 -0.0024201623
000200 ac 7e e2 bc 79 36 e0 bc c4 f9 10 bd a6 f0 66 bc
       -0.027648292 -0.027369725 -0.035394445 -0.014095461
000210 4c 92 86 bc 1a 7b 30 bc df f0 84 bc a2 79 8f ba
       -0.016427182 -0.010771537 -0.016228138 -0.0010946284
000220 d0 a3 91 3d 31 58 8c 3d 6f 02 00 3d 98 31 94 3c
       0.07111323 0.06852759 0.03125232 0.018090054
000230 df 20 e9 3c 08 5a 8e 3c e1 9a fe 3b a4 84 3f 3b
       0.028458057 0.017376915 0.007769928 0.0029223347
000240 bb d0 93 bc cd a5 3a 3b c1 af 10 3d ce e8 ef 3b
       -0.018043866 0.0028480173 0.035323862 0.0073214537
000250 82 56 a0 bc a0 d3 62 3d e0 3e a5 3d 24 f2 eb 3a
       -0.0195725 0.055377603 0.08068633 0.0018001241
000260 8c fc c9 3c ea 63 f2 3c f6 d8 93 3c 7a d3 cf b8
       0.024656557 0.029588658 0.018047791 -9.90992e-05
000270 5a c7 25 3c 8b 8b 17 3a cd f8 fc 3b bd fb fe ba
       0.01011833 0.00057809864 0.007720089 -0.0019453686
000280 cf e1 e0 bc 20 52 1f 3d 6f 37 a5 3c 75 d9 bb bc
       -0.027451424 0.03889668 0.020168034 -0.02293084
000290 50 d3 8a 3c df 97 ff 3c 14 ce bb 3c f0 8f 18 bd
       0.016946465 0.031200347 0.022925414 -0.037246644
0002a0 d9 b1 3a bd 99 90 e8 3c d1 78 19 3d 06 2f c8 3c
       -0.045579765 0.028389262 0.037468735 0.024436485
0002b0 a3 f6 fe bc 3c 7b ce bb 24 6c de bc 0e 60 d9 3b
       -0.031123465 -0.006301312 -0.027151175 0.006633765
0002c0 43 51 85 b9 14 06 bf 3c 77 d0 74 bc ec 0a 21 bb
       -0.00025428282 0.023318328 -0.01494228 -0.002457316
0002d0 1d 84 e5 bb 85 ce 9e 3d 94 71 12 ba 8b 81 9a ba
       -0.0070042745 0.07754234 -0.00055863825 -0.0011787874
0002e0 43 ea f2 bc 9b 67 20 bd 54 e4 44 bc e8 03 c0 ba
       -0.02965272 -0.039161306 -0.012017328 -0.0014649602
0002f0 fd 3f 9c ba 6b c3 2b 3b 93 9f ce b9 b7 1b 26 ba
       -0.0011920925 0.0026209007 -0.00039410274 -0.00063365273
000300 ef f7 b6 bd fd dc 73 bc 38 18 72 3c 8a bb 61 39
       -0.08934008 -0.014884231 0.014776282 0.00021527536
000310 f7 86 fa bd f5 2a a8 3c 2c ea b6 3c 0a d9 b4 b9
       -0.12232774 0.020528296 0.022328459 -0.00034493982
000320 a7 23 8b bd 12 ee 72 3c 62 91 d1 bb 19 5e be bb
       -0.067939095 0.014827268 -0.006395505 -0.005809557
000330 23 47 69 bc 60 de 35 bb 24 a6 a7 bb 9d 09 9d 3a
       -0.014238152 -0.0027750954 -0.005116241 0.0011981014
000340 9b 8d 41 bc aa 3c e5 3b 4c da 15 3d 5f 47 99 3b
       -0.0118135465 0.006995757 0.036585137 0.0046776976
000350 ab 98 19 3d 8d 4b 7d 3c cd 65 52 3b cb 31 85 3a
       0.03749911 0.015459907 0.0032104135 0.0010161934
000360 7c c9 27 3d 6c a0 c6 3c ba c0 22 bb fc 43 4b 3b
       0.040963635 0.024246417 -0.0024834112 0.0031015864
000370 b3 f8 90 3b 39 2d e9 3a b2 4b 2c 3a a7 eb 60 3b
       0.0044241785 0.0017789967 0.0006572559 0.0034320147
000380 cd c1 70 bc a0 29 f5 3c e7 d5 84 bc 7f 9a 20 ba
       -0.014694643 0.029927075 -0.016215278 -0.00061265373
000390 81 e8 3b 3d 76 62 07 be b1 c0 06 bd b5 9e 0c bb
       0.04587603 -0.13221154 -0.03289861 -0.0021456901
0003a0 b6 71 14 bb 8f e0 e1 bc db 11 19 3a dc 1e 67 3a
       -0.0022650785 -0.027572898 0.00058391475 0.0008816549
0003b0 1e 84 85 bb 67 56 17 bb 2d f0 47 bb 26 7e 9f ba
       -0.0040745875 -0.0023092271 -0.0030508146 -0.0012168332
0003c0 78 5e 35 3d 40 55 9d bd dd a1 82 bd fe 61 bc bb
       0.044279546 -0.07682276 -0.06378529 -0.0057489863
0003d0 a2 0a 7e 3d 31 1a be bd 5c 35 11 bd 13 e5 ed ba
       0.06202186 -0.09282339 -0.035451278 -0.0018149934
0003e0 ef 68 e4 3c 23 68 44 bd 6a 38 a8 bb 71 22 8b bc
       0.027882067 -0.047950875 -0.005133678 -0.016984196
0003f0 3c a5 15 3c 8a 3d 37 bc 7a 48 05 bc d5 b0 4c 3a
       0.009133633 -0.011184106 -0.008134956 0.00078083324
