models/jpeg_to_raw.dn2.1569400880.model (torch_old, 297179 bytes, 8 tensors)

decompress.0.weight f4 [64, 3, 8, 8]
0	0x3acff5d8	0.0015866114
1	0xbc423392	-0.011853116
2	0x3b8a9fb2	0.004230463
3	0xbc91b16e	-0.0177848
4	0x3b9fafb6	0.0048732413
5	0xbbd8848b	-0.006607597
6	0x3b6fc113	0.0036583587
7	0x3b52b414	0.0032150792
8	0xbb54a8ad	-0.0032449171
9	0x3b89033c	0.004181294
10	0x3c086c30	0.008326575
11	0xbba6c7d9	-0.0050897417
12	0x3c16c04f	0.009201123
13	0xbbfa8bbf	-0.0076460536
14	0x3cbdab4f	0.023152975
15	0xbba6796f	-0.005080394
16	0x3b50b620	0.0031846836
17	0xbb9240fc	-0.004463313
18	0xbd3ef375	-0.046618897
19	0x3a6e49ff	0.0009090006
20	0x3c728933	0.014803219
21	0xbd89a175	-0.067202486
22	0xbb6838ba	-0.0035434202
23	0xbc6072b7	-0.013699225
24	0xbc393517	-0.0113041615
25	0x3c22976d	0.009923798
26	0xbc9c138b	-0.019052288
27	0x3e4c27e9	0.199371
28	0x3e8645f2	0.2622524
29	0xbc055425	-0.008137737
30	0xbcbc438a	-0.022981424
31	0x3bda18d4	0.006655792
32	0xbcb7cf5f	-0.02243775
33	0xb92913c9	-0.00016124466
34	0xbd827600	-0.06370163
35	0xbcbc7639	-0.023005592
36	0x3d99887a	0.07496734
37	0xbd57e5d9	-0.052709434
38	0xbc5fe24a	-0.013664791
39	0xbc1917c0	-0.009344041
40	0xbc14c3e7	-0.00907991
41	0x3b2a9abd	0.0026032173
42	0x3b108ce7	0.002205664
43	0xbcdfee9c	-0.027335458
44	0xbcedbb7f	-0.02902007
45	0xbcf3480c	-0.02969744
46	0x3b462e5c	0.0030240035
47	0xb9ab4771	-0.0003266889
48	0xbbc9f824	-0.006163614
49	0xbb4705b5	-0.0030368392
50	0x3bbbe026	0.0057335077
51	0xbc180b4e	-0.009280039
52	0x3c486c89	0.012232908
53	0xbc182498	-0.009286068
54	0xbb4d32c5	-0.0031310779
55	0x3bf01904	0.007327201
56	0xbad19f22	-0.001599286
57	0xb917e955	-0.00014487405
58	0x3c405ba6	0.011740601
59	0xbcabd525	-0.020975659
60	0x3ae6ac15	0.0017598892
61	0xbb4d6b39	-0.0031344427
62	0x3b8545b3	0.0040671467
63	0x3bc6f1b8	0.0060712956
64	0x3a8b012c	0.0010605208
65	0x3bc09a8c	0.0058777984
66	0x3c61e3e5	0.013787244
67	0x3b89381e	0.004187598
68	0x3d1c6439	0.038181517
69	0x3a246f20	0.00062726624
70	0x3cb20a9b	0.021733573
71	0x3ca73f8e	0.020416047
72	0x3a5cb162	0.0008418766
73	0x3b3c53d9	0.00287365
74	0x3bcadb60	0.0061907023
75	0xbc31b69a	-0.010846758
76	0x3cc851f9	0.02445315
77	0x3cc20668	0.023684695
78	0x3c4cd31b	0.012501503
79	0x3bf3fd91	0.007445999
80	0x3b44a952	0.003000815
81	0xbc322c88	-0.010874875
82	0x3c432d85	0.011912708
83	0x3ccec22d	0.025239075
84	0x3d69bbc5	0.057063837
85	0xbcb16f9d	-0.021659667
86	0x3c01acf7	0.007914773
87	0x3c9e8e9a	0.019355107
88	0x3c4ed24f	0.012623384
89	0x3cc3ed0d	0.023916746
90	0x3d0f125e	0.034929626
91	0x3e6d00f7	0.231449
92	0x3ea90324	0.3301021
93	0x3d4a84ea	0.049443163
94	0x39907f3f	0.00027560626
95	0x3ce3cab3	0.027806615
96	0x3c8771db	0.016533783
97	0x3c70c697	0.014695785
98	0xbc1cbd8f	-0.009566679
99	0x3ce95e8e	0.02848747
100	0x3dda5de3	0.10662439
101	0xbb3a32d0	-0.0028411634
102	0x3cc72979	0.024311768
103	0x3c65339c	0.013989355
104	0x3c9bd243	0.019021159
105	0x3c0c3d30	0.00855951
106	0x3d22eebb	0.039778452
107	0x3c05f1e5	0.008175348
108	0x3c6ae134	0.014335919
109	0x3c8cc7ca	0.01718511
110	0x3c83ce61	0.01608962
111	0x3cfa9174	0.030586936
112	0x3b8fcdb4	0.0043885354
113	0x3af8515b	0.0018945144
114	0x3c840327	0.016114784
115	0x3aff606d	0.0019483693
116	0x3d43251e	0.04764282
117	0x3c127b14	0.008940477
118	0x3c9f8a59	0.019475149
119	0x3ca38d6f	0.019964902
120	0x3bb59e81	0.005542577
121	0x3bb49221	0.005510584
122	0x3c5bd690	0.013417855
123	0xbc0ae068	-0.008476354
124	0x3c664977	0.014055601
125	0xbb3afca8	-0.0028531943
126	0x3c3fe685	0.011712675
127	0x3c3dea77	0.011591545
128	0x3abb1ef9	0.0014276198
129	0xbb398bba	-0.0028312043
130	0x3c234c2c	0.009966891
131	0xbc515ff6	-0.0127792265
132	0xbab14206	-0.0013523705
133	0xbcb283a8	-0.021791294
134	0xbcd2d9fd	-0.02573871
135	0xbc85c513	-0.016329324
136	0xbc7db004	-0.01548386
137	0x3ad4dd2b	0.001624023
138	0xbcb5469d	-0.022128398
139	0xbd372a96	-0.044718347
140	0xbcc2a19f	-0.023758708
141	0xbae29429	-0.0017286587
142	0x3b517f45	0.0031966728
143	0xbc059dec	-0.008155327
144	0xbc0b45e9	-0.008500555
145	0xba424a01	-0.000741154
146	0xbd391639	-0.04518721
147	0xbd52d107	-0.051468875
148	0xbb8770d1	-0.004133322
149	0xbd80c88e	-0.06288253
150	0x3bb37da1	0.0054776226
151	0xbc23a00b	-0.009986888
152	0xbd0644fc	-0.032780632
153	0xbc3d20b4	-0.011543442
154	0xbd98c440	-0.07459307
155	0x3e0b8628	0.13625395
156	0x3e7e25c2	0.24819091
157	0xbb5590c0	-0.0032587498
158	0xbcbaecf0	-0.022818059
159	0xbd2cf6ba	-0.042227484
160	0xbb6da7d9	-0.0036263375
161	0x3c21f8c0	0.009885967
162	0xbd894e70	-0.06704414
163	0x3c52594f	0.012838676
164	0x3d625eaf	0.05526608
165	0xbcd1f8ca	-0.025631327
166	0xbc937f4a	-0.018005032
167	0xbcb8fa9e	-0.022580441
168	0xba30f255	-0.00067499775
169	0xbbfe4ae3	-0.007760392
170	0xbb289f10	-0.0025729574
171	0xbcfb9165	-0.030708978
172	0xbcbd6fe3	-0.02312464
173	0xbc8d84a8	-0.01727517
174	0xbc91e686	-0.017810117
175	0xbcbb59fa	-0.022870053
176	0x398bf35c	0.00026693463
177	0xbc8c5ae7	-0.01713319
178	0xbbe7d038	-0.007074382
179	0xbc66fb23	-0.014097962
180	0xb9c11dfa	-0.00036834163
181	0xbc646b0e	-0.013941539
182	0xbad9ae51	-0.0016607736
183	0xbcbada65	-0.022809217
184	0xbbca1f48	-0.00616828
185	0xbcbee135	-0.023300746
186	0xbc51383c	-0.012769755
187	0xbd0d7341	-0.034533743
188	0xbc1c532c	-0.009541314
189	0xbd0d91a8	-0.034562737
190	0xbc089926	-0.008337295
191	0xbca59037	-0.020210369
192	0xbb8b433a	-0.0042499574
193	0xbaa646e4	-0.0012685922
194	0xba98879a	-0.0011637092
195	0xbb80a451	-0.003925838
196	0xbd0688d6	-0.03284534
197	0xbcb718a1	-0.022350611
198	0xbce0e3f4	-0.027452447
199	0xbccab77b	-0.024745693
200	0xbd03958c	-0.03212504
201	0xbbd9bc3e	-0.0066447547
202	0xbc0e0723	-0.008668694
203	0xbcc0367b	-0.023463478
204	0xbc303a86	-0.010756141
205	0xbd3cca15	-0.046091158
206	0xbd47dce1	-0.04879463
207	0xbc1e537e	-0.009663461
208	0xbc884df7	-0.016638739
209	0x3c80ede3	0.015738433
210	0x3c287f01	0.010284186
211	0x3db82acc	0.08992538
212	0xbb971f58	-0.0046118908
213	0x3b0097df	0.0019621772
214	0xbd6cba08	-0.0577946
215	0xbc6c0987	-0.014406568
216	0xbb4816e7	-0.003053123
217	0x3c324a74	0.010882009
218	0xbd603067	-0.05473366
219	0x3e0baa1c	0.1363911
220	0x3ea2247c	0.3166846
221	0xbcd9db94	-0.02659396
222	0xbd0772be	-0.03306841
223	0x3d35ac0d	0.044353534
224	0x3bb06db3	0.005384171
225	0xbd1e460d	-0.038641024
226	0x3cac822f	0.02105817
227	0xbbdd6ed1	-0.006757595
228	0xbda34b57	-0.07973354
229	0x3da260d2	0.07928623
230	0xbc8388b7	-0.016056402
231	0x3d1a7031	0.03770465
232	0x3be7b4a0	0.0070710927
233	0xbcef150f	-0.029184846
234	0xbc58f19c	-0.013241198
235	0xbd25b7d7	-0.040458526
236	0x3db579f9	0.08861155
237	0xbd1c8e61	-0.03822172
238	0xbccced1c	-0.025015406
239	0x3cbc2855	0.02296845
240	0x3c4d4c7f	0.012530445
241	0xbc8c5ff1	-0.017135592
242	0xbd68169d	-0.05666219
243	0xbd622add	-0.05521666
244	0xbcab2170	-0.020889968
245	0xbc8cec5e	-0.017202552
246	0x3c890da5	0.016730139
247	0xb9d03be0	-0.00039717462
248	0x3be1dac1	0.0068925326
249	0xbc3f94f3	-0.011693227
250	0x3b157d95	0.0022810448
251	0x3aadd25f	0.0013261548
252	0x3c2216a4	0.009893093
253	0xbc36b835	-0.011152317
254	0xbbaec72f	-0.005333803
255	0xbc2a666d	-0.010400397

decompress.0.bias f4 [64]
0	0xbe8ab95f	-0.27094552
1	0x3e0df16d	0.13861628
2	0x3d7ecc68	0.062206656
3	0x3ca00b5f	0.019536672
4	0x3dc6f343	0.09714367
5	0x3d0b5355	0.03401502
6	0x3dff4cd1	0.124658234
7	0x3d9c0193	0.07617488
8	0x3da76d76	0.08175175
9	0x3d7f753c	0.062367663
10	0x3d87b20a	0.06625755
11	0x3d3ca1df	0.04605281
12	0x3d75939c	0.059955224
13	0x3cb46540	0.022020936
14	0x3da2172f	0.07914578
15	0xbcd23586	-0.025660288
16	0x3e01f06a	0.12689367
17	0x3e634353	0.22193651
18	0x3e0eceb4	0.13946038
19	0x3d954320	0.07288194
20	0x3e7e5cf0	0.2484014
21	0xbd19279b	-0.037391286
22	0x3e27139f	0.16316079
23	0x3b7bec7c	0.0038440516
24	0x3da6545d	0.0812156
25	0xbd112969	-0.035439882
26	0x3dbd2bfd	0.09236906
27	0x3ce23fcd	0.027618313
28	0x3c7d1379	0.015446537
29	0x3e63fdb7	0.22264753
30	0x3dfda383	0.12384703
31	0xbc85f7cc	-0.01635351
32	0x3d577c50	0.052608788
33	0x3e7344d3	0.23756723
34	0x3cfdd9a7	0.030987574
35	0x3e0ed0c5	0.13946827
36	0x3d0d702f	0.034530815
37	0xbe9740d7	-0.29541656
38	0x3e629152	0.22125748
39	0x3dd30eff	0.10305595
40	0x3d282f97	0.04106101
41	0xbd149190	-0.03627163
42	0x3e29fce8	0.16600382
43	0x3d7288ca	0.059212483
44	0x3defc3e4	0.11707285
45	0x3df73ed0	0.120725274
46	0x3e0d1c2b	0.13780276
47	0x3e07994c	0.13242072
48	0x3efe8861	0.49713424
49	0xbc195efb	-0.009361024
50	0x3e911f74	0.2834431
51	0x3dd7ee51	0.10543502
52	0x3dbb998d	0.09160147
53	0x3d05245e	0.032505386
54	0x3dc62e6f	0.09676825
55	0x3df6868e	0.12037383
56	0x3df8d725	0.121504106
57	0x3dc28c9d	0.09499476
58	0x3dad83fc	0.0847244
59	0xbd14f407	-0.036365535
60	0x3db1a8ed	0.08674798
61	0x3e1ec3b1	0.15504338
62	0x3de17394	0.11008373
63	0x3db11341	0.086462505

decompress.2.weight f4 [64, 64, 3, 3]
0	0x3d1ae85a	0.037819244
1	0x3d063e33	0.03277416
2	0xbd1fbd44	-0.038998857
3	0x3d45b45f	0.04826772
4	0xbc31717d	-0.01083028
5	0xbc1c3d5b	-0.009536113
6	0xbc2524dc	-0.010079589
7	0xbd2c25bc	-0.042028174
8	0x3c0b13d9	0.008488619
9	0xbcbbc214	-0.022919692
10	0x3c1cc02d	0.009567303
11	0xbc0b722b	-0.0085111065
12	0xbcab18c9	-0.020885842
13	0x3d676770	0.05649513
14	0x3bb6ab2a	0.0055746036
15	0xbbc5eaec	-0.0060399678
16	0xbaa4fead	-0.0012588106
17	0xbc303e56	-0.01075705
18	0xba9a984d	-0.0011794657
19	0x3b9faeb9	0.0048731235
20	0x3d1ddb26	0.038539074
21	0xbc469f8f	-0.012123003
22	0xbbb5e779	-0.0055512753
23	0xbc1a0cda	-0.009402478
24	0xbd1ed907	-0.038781192
25	0x3cdb3f09	0.026763456
26	0x3b73ecd6	0.0037220023
27	0xbce9de11	-0.028548272
28	0xbd587059	-0.052841518
29	0xbd5176a4	-0.051138535
30	0x3cf37456	0.02971856
31	0xbb7d91c7	-0.0038691626
32	0x3c024067	0.007949925
33	0x3d36df6e	0.044646673
34	0x3c697ab7	0.014250449
35	0xbd3c5481	-0.045979027
36	0xbb5ec770	-0.0033993386
37	0xbc2ccc5d	-0.010546771
38	0xbcb1fb38	-0.021726236
39	0x3b971013	0.0046100705
40	0x3d7463ab	0.059665363
41	0xbc89c513	-0.016817605
42	0x3c7d5c74	0.015463937
43	0x3cb60a56	0.022221725
44	0xbb4fc376	-0.0031702197
45	0x3d4bcd5b	0.04975639
46	0xbcb95108	-0.022621647
47	0x3d722698	0.059118837
48	0x3cb890c3	0.022529965
49	0xbd469786	-0.048484348
50	0x3cdff476	0.027338248
51	0x3ddeb322	0.108740106
52	0x3d7e9e17	0.062162485
53	0x3da2c280	0.07947254
54	0xbc587297	-0.013210914
55	0x3bb05036	0.0053806556
56	0xbc8d8474	-0.017275073
57	0x3c57dd60	0.0131753385
58	0x3c1e813a	0.009674365
59	0x3cb53c61	0.022123517
60	0x3cb062e2	0.021531526
61	0xbc9d44f2	-0.019197915
62	0x3ae3ba5a	0.0017374263
63	0xbc9deb9e	-0.01927739
64	0x3bb9da94	0.0056718085
65	0xbac8a921	-0.0015309193
66	0x3d2ca5c3	0.04215027
67	0xbd1cdbb3	-0.03829546
68	0xbda3db2e	-0.080007896
69	0x3ca5bed7	0.020232601
70	0xbbcb3a3f	-0.006202012
71	0x3c17d79e	0.009267716
72	0xbb861195	-0.0040914514
73	0xbd5fddc6	-0.05465486
74	0x3bd5d7ed	0.0065259845
75	0x3c6c2710	0.01441361
76	0xbdefcd6c	-0.11709103
77	0xbc079370	-0.008274898
78	0x3b91d3cc	0.004450297
79	0xbd4fd8e6	-0.05074396
80	0x3d77caef	0.060496267
81	0x3daaf506	0.08347516
82	0x3d5cea20	0.053934216
83	0x3c1ae1b9	0.009453231
84	0xbc143d1a	-0.009047771
85	0x3b22bd0d	0.0024831921
86	0xbd04e586	-0.032445453
87	0x3d4f0b8e	0.05054813
88	0xbd571cfd	-0.05251788
89	0x3e22c476	0.15895256
90	0xbc6556d0	-0.0139977485
91	0xbd84cc9d	-0.064843394
92	0x3c4339f5	0.0119156735
93	0xbd120569	-0.03564969
94	0xbd02a3cf	-0.0318945
95	0x3c612f0e	0.013744129
96	0x3c98fc79	0.018675076
97	0x3c006a74	0.00783788
98	0x3d391409	0.045185123
99	0xbccc3c7f	-0.02493119
100	0xbc8be17d	-0.017075295
101	0x3d90b9ef	0.07066714
102	0xbcbefc0b	-0.023313543
103	0xbd391b87	-0.045192268
104	0x3d3b0121	0.045655373
105	0x3da6ae77	0.08138745
106	0xbc9ac48f	-0.018892555
107	0x3d917717	0.07102793
108	0x3d3a1e57	0.04543909
109	0xbd2acccf	-0.041699227
110	0xbc1791cc	-0.009251069
111	0x3dc07217	0.09396761
112	0xbcf0a547	-0.029375685
113	0x3db6f3e9	0.08933241
114	0xba11b361	-0.00055580406
115	0xba1d45e6	-0.00059994904
116	0x3caa5cb4	0.020796157
117	0xbe170202	-0.1474686
118	0xbc395952	-0.0113127995
119	0xbcba1d55	-0.022719065
120	0x3cd8b8d4	0.02645532
121	0x3ccbc7bc	0.024875514
122	0x3d36ddfd	0.0446453
123	0xbd123048	-0.035690576
124	0xbd804c9a	-0.062646106
125	0xbc638567	-0.013886786
126	0xbc3256a0	-0.010884911
127	0xbd09a4a5	-0.033604283
128	0x3c170346	0.009217089
129	0xbbcc29a0	-0.006230548
130	0xbd13d3c1	-0.036090616
131	0x3b6b67fa	0.003592013
132	0x3c2889b9	0.010286742
133	0xbc8b3d43	-0.016996985
134	0xbd7f8dba	-0.06239102
135	0xbe2a001b	-0.16601603
136	0xbb5f09fc	-0.003403305
137	0xbe230c6d	-0.15922709
138	0xbe1a0950	-0.15042615
139	0xbd950a73	-0.07277384
140	0xbe049de8	-0.12950861
141	0xbdc21c9d	-0.09478114
142	0x3d1b60c7	0.03793409
143	0x3cc935c6	0.024561774
144	0x3d320d41	0.04346967
145	0xbe11411f	-0.14184998
146	0x3d4d2f30	0.05009383
147	0xbd96328b	-0.07333859
148	0xbcc5f440	-0.024164319
149	0x3db34bfd	0.08754728
150	0xbd38f424	-0.045154706
151	0x3cbdd172	0.02317116
152	0x3dbd7139	0.09250111
153	0x3b8de10a	0.0043298053
154	0x3b562533	0.003267598
155	0x3c9854b3	0.018595075
156	0xbcd07c0f	-0.02544978
157	0x3cbdc079	0.023163067
158	0x3d86fc1e	0.06591056
159	0xbbeb77b6	-0.0071859015
160	0x3cbc6bf9	0.023000704
161	0x3d83c609	0.064342566
162	0xbd0ecd59	-0.034863804
163	0x3ca2c0f7	0.019867403
164	0xbc88c93e	-0.016697522
165	0x3c1730de	0.009227959
166	0x3c51b82c	0.012800258
167	0x3d19ac56	0.037517868
168	0x3c89bb0e	0.016812827
169	0x3c28a35f	0.010292857
170	0xbc2e5e18	-0.010642551
171	0x3c01e2df	0.007927625
172	0x3cdf954b	0.027292868
173	0x3d3015ae	0.042989425
174	0xbd39b4bc	-0.045338377
175	0xbc810fd0	-0.01575461
176	0x3bb0bc95	0.0053935745
177	0x3dc1690c	0.09443864
178	0x3da1878f	0.07887184
179	0x3d5bee19	0.053693864
180	0x3d274c99	0.040844534
181	0xbd19f5ad	-0.03758781
182	0x3ca8deb7	0.020614011
183	0x3cdb9934	0.026806451
184	0xbc625941	-0.013815225
185	0x3cbd34cd	0.023096466
186	0xbd184f78	-0.037185162
187	0xbe3b47c9	-0.18289103
188	0xbb1627f9	-0.002291201
189	0xbe71a79c	-0.23599094
190	0xbe184a30	-0.1487205
191	0xbdcf8fbe	-0.101348385
192	0x3d50ed4d	0.051007558
193	0xbbbb17a0	-0.0057096034
194	0x3dd7f37e	0.10544489
195	0xbd77df2a	-0.06051556
196	0x3be5fb47	0.00701848
197	0x3d572a5b	0.052530628
198	0x3d7bb0f1	0.06144804
199	0xbd32ae60	-0.04362333
200	0x3cf343d5	0.02969543
201	0x3ca4031d	0.020021016
202	0xbd90912f	-0.070589416
203	0xbd354cb8	-0.044262618
204	0x3d8dae5c	0.06918022
205	0xbd302d5b	-0.043012004
206	0xbc75c612	-0.015000837
207	0xbe1eb1b1	-0.15497471
208	0xbdb822e0	-0.08991027
209	0x3d6ad9ae	0.0573365
210	0x3d9c04e2	0.07618119
211	0x3d91593d	0.07097099
212	0x3d8918e7	0.06694203
213	0x3c5230c8	0.012829013
214	0x3dacbf5a	0.08434935
215	0x3d9b7129	0.07589943
216	0xbb36b5a7	-0.002787927
217	0x3d6a2203	0.057161342
218	0x3c2d4f44	0.01057798
219	0xbb09da8b	-0.0021034803
220	0xbd7fe268	-0.062471777
221	0xbc6f46ac	-0.014604252
222	0xbccc98fa	-0.024975289
223	0x3cb8d568	0.022562698
224	0xbcd424f2	-0.025896523
225	0xbc92ee6f	-0.01793596
226	0x3caad40b	0.020853063
227	0x3d4152a9	0.04719797
228	0xbc96f94e	-0.018429425
229	0x3d0fafcc	0.035079762
230	0xbd85b917	-0.06529444
231	0x3bdb0030	0.006683372
232	0x3db57bab	0.088614784
233	0x3d608d3d	0.054822195
234	0x3d8cb795	0.06870953
235	0x3d863d34	0.06554642
236	0xbce383a0	-0.027772725
237	0x3d683df9	0.056699727
238	0x3d31fb94	0.043452814
239	0x3c72668a	0.014794955
240	0x3d30231d	0.043002237
241	0xbd10e5d1	-0.03537542
242	0xbd994ae8	-0.0748499
243	0x3921cbb0	0.00015430036
244	0xbc59f899	-0.013303899
245	0xbcfa033d	-0.030519122
246	0x3d2bd4fb	0.04195116
247	0x3c0c6c31	0.008570717
248	0xbc6c8f8d	-0.014438522
249	0x3dd8ac13	0.105796956
250	0xbcbc03a2	-0.022950951
251	0xbc276fb6	-0.010219505
252	0xbc702ff2	-0.014659869
253	0x3a651723	0.00087391044
254	0x3d74a663	0.05972899
255	0x3d11f834	0.035637096

decompress.2.bias f4 [64]
0	0x3e170406	0.14747629
1	0x3d12aa2b	0.035806816
2	0xbd8b002b	-0.067871414
3	0x3cd305b1	0.02575955
4	0x3dec1698	0.11527747
5	0x3dba11ba	0.09085412
6	0x3cb844a7	0.022493673
7	0x3cba92a4	0.022775002
8	0x3ceac9c4	0.028660662
9	0x3dbc49ff	0.09193801
10	0x3d8c9a74	0.06865397
11	0xbd4aae7a	-0.0494828
12	0x3d2ec660	0.042669654
13	0x3b39aac1	0.0028330537
14	0xbd3a445c	-0.04547535
15	0x3ce393d9	0.02778046
16	0xbd1062c3	-0.035250437
17	0x3e02d87c	0.12777895
18	0x3e0c7cdf	0.1371951
19	0xbd091e1d	-0.033475984
20	0x3bd93985	0.0066291713
21	0xbcf78562	-0.03021497
22	0x3d30929a	0.04310856
23	0x3dda4f62	0.10659672
24	0xbd26d74f	-0.040732678
25	0xbb730111	-0.0037079493
26	0xbcfa39b0	-0.030545086
27	0x3d8338cd	0.06407318
28	0xbd07fb9d	-0.03319894
29	0xbd881237	-0.06644099
30	0x3cf97e43	0.030455714
31	0xbd2b428e	-0.04181152
32	0x3d52f734	0.051505283
33	0xbc31fd48	-0.01086361
34	0x3cb92638	0.022601232
35	0x3db86d02	0.090051666
36	0x3d64ec71	0.05588955
37	0x3d4ed388	0.0504947
38	0x3e2b9c07	0.16758738
39	0xbc6bc669	-0.014390566
40	0x3d5bd96a	0.05367414
41	0x3c156b75	0.009119858
42	0x3bd44a2f	0.00647857
43	0x3d8f8996	0.07008664
44	0x3e223e09	0.15843977
45	0x3e113232	0.14179304
46	0x3dbcaace	0.09212266
47	0x3ab7ceb4	0.0014023394
48	0xbd442d08	-0.047894508
49	0xbbcf247c	-0.006321488
50	0xbb8c7903	-0.0042868867
51	0xbc8f87bf	-0.017520783
52	0x3e7a654e	0.24452707
53	0x3dc787e5	0.09742717
54	0x3da1f374	0.07907763
55	0x3d54e576	0.051976644
56	0x3d85a689	0.06525905
57	0x3d94e131	0.07269514
58	0x3d905e1c	0.070492
59	0x3a16e548	0.00057562115
60	0x3d160be5	0.036632437
61	0x3e318851	0.17337157
62	0x3c4e4795	0.012590309
63	0x3c2ee2c5	0.010674183

decompress.4.weight f4 [32, 64, 3, 3]
0	0xbcc98e79	-0.02460407
1	0x3c9cb62e	0.019129839
2	0xbd25a9aa	-0.040445007
3	0x3d95be6e	0.07311712
4	0xbbed0284	-0.007232966
5	0x3a0d1567	0.00053819123
6	0xba36c301	-0.0006971807
7	0x3bfad37f	0.007654607
8	0xbc07726c	-0.008267026
9	0x3c637ca2	0.013884695
10	0xbd81274e	-0.06306325
11	0xbc4b7571	-0.012418137
12	0x3b172baa	0.0023066797
13	0xbd194886	-0.03742268
14	0x3d50a6f5	0.050940473
15	0x3cacbee0	0.02108711
16	0xba7ca89b	-0.0009638161
17	0x3b14f9df	0.0022731943
18	0xbcb5f50e	-0.022211578
19	0x3cac65a7	0.021044565
20	0x3b33f3a1	0.0027458447
21	0x3c3137b1	0.0108165005
22	0x3d0a30f2	0.033738084
23	0x3d8226b5	0.06355039
24	0xbd2a5847	-0.041588094
25	0xbcc6b291	-0.024255069
26	0xbd049435	-0.032367904
27	0x3d02e37b	0.031955224
28	0xbcc72ff8	-0.024314865
29	0xbbe45d28	-0.006969113
30	0x3bd5e0c5	0.0065270388
31	0x3b84cd55	0.004052798
32	0x3d305a4e	0.04305487
33	0x3b756f7e	0.0037450488
34	0xbc48c0f5	-0.012253036
35	0x3c5558ff	0.013021707
36	0x3d0d13c4	0.034442678
37	0xbc82eb35	-0.015981296
38	0x3d2723a4	0.040805474
39	0x3d1ff3ce	0.03905087
40	0xbda77df4	-0.081783205
41	0x3d4e2052	0.05032379
42	0x3d0a1da4	0.033719674
43	0xbd1c6209	-0.03817943
44	0x3cd5d690	0.026103288
45	0x3d24734c	0.04014902
46	0x3d4136f1	0.047171537
47	0x3d536776	0.05161234
48	0x3b5b31e4	0.0033446485
49	0xbd412d9f	-0.04716265
50	0xbb606ec8	-0.0034245718
51	0x3dd19e21	0.10235239
52	0x3cec49bf	0.028843759
53	0x3d288563	0.041142832
54	0xbd75ca90	-0.06000763
55	0xbc8b8c38	-0.017034635
56	0xbcc0e1c4	-0.023545153
57	0x3d72d64f	0.05928641
58	0xbd1419a2	-0.036157258
59	0xbc32e3e5	-0.010918592
60	0x3bd5eb02	0.0065282593
61	0x3cfa2334	0.030534364
62	0x3c145b50	0.009054974
63	0x3cab7a78	0.020932421
64	0x3c2a1961	0.010382027
65	0xbb1f426b	-0.0024301063
66	0xbd32a599	-0.043614957
67	0x3c6f2bff	0.014597892
68	0x3c832853	0.016010439
69	0xbd0c79a6	-0.0342957
70	0x3cff8043	0.03118909
71	0x3d393083	0.04521228
72	0x3c0b364e	0.008496834
73	0x3ca993fe	0.020700451
74	0xbce3bd08	-0.027800098
75	0xbcf60ecb	-0.03003635
76	0x3c32ce1d	0.010913399
77	0xbd117771	-0.0355143
78	0x3cf00870	0.029300898
79	0x3c58ce9d	0.013232854
80	0xba35e4aa	-0.00069386757
81	0x3d0adfe9	0.033904944
82	0x3ca2f8ba	0.019893993
83	0x3d8f47b2	0.06996097
84	0xbd837107	-0.06418043
85	0x3d044a04	0.03229715
86	0xbb0f10a3	-0.0021829985
87	0xbd1021d1	-0.0351885
88	0xbd4f0e08	-0.05055049
89	0xbd6ad631	-0.057333175
90	0x3d56e538	0.052464694
91	0x3b33d51c	0.0027440256
92	0xbcc4e1e7	-0.0240335
93	0xbc951c01	-0.01820183
94	0xbd9df6ef	-0.077131145
95	0xbb9c5c32	-0.0047717327
96	0x3d9c7dec	0.07641205
97	0x3d2deb52	0.042460747
98	0xbc16d10e	-0.009205116
99	0xbcb8ab95	-0.022542754
100	0x3d10a736	0.035315715
101	0x3bf28d84	0.007402124
102	0xbc106f14	-0.008815546
103	0x3ce21215	0.027596513
104	0xbc5bf21f	-0.013424425
105	0xbb1351c3	-0.0022479154
106	0xbd06b84d	-0.032890607
107	0xba8441c7	-0.0010090404
108	0x3d1372cd	0.035998154
109	0xbcc07c73	-0.023496842
110	0x3d84457d	0.06458566
111	0x3b50800c	0.0031814603
112	0xbcdebb2e	-0.027188864
113	0xbbdae32d	-0.0066799135
114	0x3d22f074	0.039780095
115	0x3d6015b7	0.05470821
116	0x3d705e2d	0.058683563
117	0x3cb72827	0.022358013
118	0x3c6b39ca	0.01435704
119	0xbd12429f	-0.035708066
120	0xb987d64a	-0.00025908864
121	0xbb8d11d0	-0.004305102
122	0xbc112843	-0.008859697
123	0x3c210887	0.009828693
124	0xbd7bbb0b	-0.061457675
125	0xbcf2a5ee	-0.029620137
126	0x3d2b3e8b	0.041807692
127	0x3cadddf1	0.021223994
128	0x3d74f39e	0.059802644
129	0x3b948a29	0.0045330715
130	0x3d397cde	0.0452851
131	0x3c1a360f	0.009412303
132	0x3c2e63a5	0.010643874
133	0x3d17b699	0.037039373
134	0x3d189566	0.037251852
135	0xbcd6609c	-0.026169114
136	0x3c66abd8	0.014079057
137	0x3c49c7c0	0.0123156905
138	0x3cb77725	0.02239568
139	0x3c8a8406	0.016908657
140	0xbbdedb4c	-0.0068010446
141	0x3caf2cab	0.021383604
142	0xbcb7af77	-0.022422535
143	0xbc7b8cf1	-0.015353427
144	0xbe7d9643	-0.24764352
145	0xbe0d81eb	-0.13819091
146	0xbe4da40e	-0.20082113
147	0xbde118ac	-0.10991034
148	0xbd0420fa	-0.03225801
149	0x3d23f529	0.040028725
150	0xbe547243	-0.20746712
151	0xbe04f3f9	-0.12983693
152	0xbe23f6d7	-0.1601213
153	0xbcf62b68	-0.030049995
154	0x3cfd1259	0.030892538
155	0x3bc11fc3	0.005893679
156	0xbc92291e	-0.017841872
157	0x3c663d5d	0.014052716
158	0xbc7677d8	-0.015043221
159	0xbd5e1f87	-0.054229286
160	0xbc67ea8e	-0.014155043
161	0xbd5a23f5	-0.053256948
162	0xbd1b6be2	-0.037944682
163	0xbd4eee0d	-0.05051999
164	0xbd0e0793	-0.034675192
165	0xbaa5f70d	-0.0012662128
166	0x3bafda90	0.005366631
167	0x3c8123f5	0.015764216
168	0x3c383071	0.011242018
169	0x3c90f917	0.0176969
170	0x3d91576a	0.07096751
171	0x3db277de	0.08714269
172	0x3b7b723e	0.0038367654
173	0x3d617f5f	0.05505311
174	0xbd17d1d5	-0.037065346
175	0xbd3b6e67	-0.045759585
176	0xbd87c46e	-0.06629263
177	0x3c0fb5c4	0.008771364
178	0xbcd23e09	-0.025664346
179	0xbcd95581	-0.02653003
180	0xbd3054ea	-0.04304973
181	0xbc0f2d34	-0.008738805
182	0xbd3c2408	-0.0459328
183	0xbad424b7	-0.0016185258
184	0xb98256a7	-0.00024860093
185	0xbd048a78	-0.032358617
186	0x3bfba4ac	0.0076795425
187	0xbd9402ad	-0.07227073
188	0xbb569c2c	-0.0032746894
189	0xbcd713ea	-0.026254613
190	0xbcadeb4d	-0.021230364
191	0xbc84afb4	-0.016197063
192	0xbad86d8c	-0.001651214
193	0x3d15569b	0.036459547
194	0x3a9bd251	0.0011888241
195	0x3c53643a	0.012902314
196	0x3d0356af	0.03206509
197	0x3d262787	0.04056504
198	0x3d994ecf	0.07485735
199	0x3d327b98	0.0435749
200	0x3c04955f	0.0080922535
201	0xbd45d89e	-0.048302285
202	0xbce674db	-0.028131893
203	0xbb97e219	-0.0046351072
204	0x3bb18345	0.00541726
205	0x3c828ef5	0.015937308
206	0x3cf36aa6	0.02971394
207	0x3be503ab	0.0069889626
208	0x3cb97dff	0.022643087
209	0x3c3375f0	0.010953411
210	0xbc28e79a	-0.010309124
211	0x3c683bea	0.014174441
212	0x3c7e1143	0.015507045
213	0x3b69b1ba	0.0035658912
214	0x3d27d00f	0.040969905
215	0x3cfa2d0e	0.030539062
216	0x3c33d00f	0.010974898
217	0x3d0603f9	0.032718632
218	0x3cc87563	0.024470037
219	0xbd0a3f58	-0.033751816
220	0xbcfca390	-0.030839711
221	0x3b86f4cf	0.004118539
222	0x3d8aeb19	0.067831226
223	0xbd1fc93b	-0.039010268
224	0x3c8094d1	0.015695961
225	0x3b7eff3f	0.0038909463
226	0x3d4c3f96	0.049865328
227	0x39c27c32	0.00037095096
228	0x3b5ba45a	0.003351471
229	0x3a51dec7	0.00080059137
230	0xbd08d923	-0.033410203
231	0xbcde8a74	-0.027165629
232	0xbd8bea11	-0.06831754
233	0xbcf602b1	-0.03003058
234	0xbd00b7c5	-0.031425256
235	0x3c076c7e	0.008265613
236	0xbc02f0ea	-0.007992009
237	0xbba2cc22	-0.004968182
238	0x3c962476	0.018327933
239	0xbcf3744e	-0.029718544
240	0x3aeb474a	0.0017950323
241	0xbcd6ab82	-0.026204828
242	0xbcdd30a2	-0.027000729
243	0xbbc0db07	-0.005885485
244	0xbb60f1c0	-0.0034323782
245	0xbc4ca314	-0.012490053
246	0x3ca07faa	0.019592125
247	0x3c5a6da9	0.013331809
248	0xbce94b4e	-0.02847829
249	0xbced9ff8	-0.029006943
250	0xbcb36ebd	-0.02190339
251	0x3d0e2ca4	0.03471054
252	0x3d9c12a9	0.07620747
253	0xbb53b591	-0.0032304267
254	0xbce07ae2	-0.027402345
255	0xbced9709	-0.029002683

decompress.4.bias f4 [32]
0	0xbd1b6aaf	-0.03794354
1	0xbd12b064	-0.03581275
2	0x3c3ca0e5	0.01151297
3	0x3d593b33	0.053034972
4	0xbdabfb68	-0.08397561
5	0x3dca5bbc	0.09880778
6	0xbc0293c4	-0.0079698
7	0xbd0a142e	-0.03371065
8	0x3cbc8137	0.023010833
9	0xbd67a744	-0.056556
10	0xbd734ef8	-0.059401482
11	0xbd925bad	-0.07146392
12	0xbd83002d	-0.06396518
13	0x3d5d620a	0.054048575
14	0x3c9e0a76	0.019292098
15	0x3c5a92a3	0.013340625
16	0xbd71e645	-0.059057493
17	0xbcbc23eb	-0.022966346
18	0xbd8fa381	-0.07013608
19	0x3dd89e13	0.10577025
20	0x3b411f84	0.0029468248
21	0x3de0d7a9	0.10978634
22	0x3cdd7b89	0.027036445
23	0x3dc1a442	0.09455158
24	0xbc85a06b	-0.016311845
25	0x3d896ab6	0.067098066
26	0x3cc4a4e4	0.024004407
27	0x3cd5ac68	0.026083186
28	0x3c7be150	0.015373543
29	0x3db0c125	0.086305894
30	0x3d8f3ffc	0.06994626
31	0x3e21d82a	0.15805116

decompress.6.weight f4 [12, 32, 4, 4]
0	0x3d67441a	0.05646143
1	0x3db2b473	0.08725824
2	0x3d1b6a7b	0.037943345
3	0x3c6d9d52	0.01450284
4	0xbb437ae4	-0.0029827887
5	0xbbda4e29	-0.0066621494
6	0x3c6604a8	0.014039196
7	0x3be8a771	0.0071000387
8	0xbcd0af08	-0.025474086
9	0xbddbc0d7	-0.10730141
10	0xbd1300b6	-0.03588935
11	0xbb83e78c	-0.0040254053
12	0xbbed6c4a	-0.007245575
13	0xbca3164b	-0.019908091
14	0xbc17d652	-0.009267407
15	0xbc15a59c	-0.009133723
16	0x3dd296a0	0.10282636
17	0x3e329222	0.17438558
18	0x3daff817	0.08592241
19	0x3c4e8bfa	0.012606615
20	0x3d8f626e	0.07001196
21	0x3e0a9803	0.1353455
22	0x3d6322e7	0.055453207
23	0xbb6327b7	-0.0034661123
24	0x3d2566b9	0.040381167
25	0x3d23c28a	0.03998045
26	0x3c1bc670	0.00950776
27	0x3accf304	0.0015636389
28	0x3c47b005	0.012187962
29	0xba9ef240	-0.001212664
30	0xbb1a47d0	-0.0023541339
31	0x3b939dc9	0.0045048934
32	0xbdbc9c2b	-0.09209474
33	0xbd01d01a	-0.0316926
34	0x3b8ce61a	0.004299891
35	0xbb7a5efb	-0.0038203585
36	0x3c0dc014	0.008651752
37	0x3be3dd93	0.006953904
38	0x3c715073	0.014728653
39	0x3c1a3d65	0.009414052
40	0x3d505530	0.05086249
41	0x3b81b2f0	0.0039580986
42	0x3ccd74d6	0.025080126
43	0x3c76dff8	0.015068047
44	0xbba086de	-0.00489889
45	0xbab822be	-0.001404844
46	0x3c5e0bcf	0.01355262
47	0x376556e2	1.3669693e-05
48	0xbcbacaa4	-0.022801705
49	0x3d12e670	0.035864294
50	0x3d326c7c	0.04356049
51	0x3ba09b64	0.0049013365
52	0xbc222f43	-0.009898963
53	0x3df061fb	0.11737438
54	0xbd2568c9	-0.040383134
55	0x3c95d6a5	0.018290827
56	0x3c69623b	0.014244611
57	0xbdccaa76	-0.0999345
58	0xbce24856	-0.027622383
59	0x3be37b3d	0.0069421814
60	0xbcaa8843	-0.020816928
61	0xbc199445	-0.009373729
62	0xbb34f5bd	-0.0027612292
63	0xbbf483b0	-0.0074619874
64	0xbbce633d	-0.006298451
65	0x3ba583ad	0.0050510974
66	0xbcc53725	-0.024074147
67	0x3bd490f2	0.0064870054
68	0xba58e3e2	-0.0008273703
69	0x3d537bc8	0.05163172
70	0xbce1addd	-0.027548725
71	0xbb4946c1	-0.0030712339
72	0xbcbbb743	-0.022914534
73	0x3ca30201	0.019898416
74	0xbb31e2f5	-0.0027143334
75	0xba8fd9c5	-0.0010974935
76	0xbae755b6	-0.0017649445
77	0x3ba1ed27	0.004941601
78	0xbb1e836b	-0.0024187218
79	0x399c30d0	0.00029791007
80	0x3c61dd65	0.013785695
81	0xbab811be	-0.0014043374
82	0xbd7354b2	-0.059406944
83	0xbae6bfcc	-0.0017604767
84	0x3c24f997	0.0100692725
85	0x3c70d2ab	0.014698665
86	0x3d151448	0.036396295
87	0x3865519c	5.467386e-05
88	0xbc1e966c	-0.009679418
89	0xbc55f047	-0.013057775
90	0x3ce1b882	0.0275538
91	0xba8c2ddb	-0.0010694818
92	0x3872ab0c	5.7856596e-05
93	0xbb0bee1a	-0.0021351636
94	0xbb054b5d	-0.002033911
95	0xb95922fb	-0.00020707764
96	0xbcc5f497	-0.024164481
97	0x3cb4508f	0.02201107
98	0xbbb54651	-0.005532064
99	0xbc6cced3	-0.014453608
100	0x3c9fca9f	0.019505797
101	0xbc9655ae	-0.018351402
102	0xbcef066c	-0.029177867
103	0xbac736c7	-0.001519882
104	0x3cd65c62	0.026167098
105	0xbc6d7f44	-0.0144956745
106	0x3d368308	0.044558555
107	0x3b6f099c	0.0036474233
108	0x3c369f10	0.011146322
109	0x398778aa	0.00025839108
110	0xbba1fd27	-0.004943508
111	0xbb8e04eb	-0.0043340824
112	0xbca40596	-0.020022195
113	0x3d0056a8	0.03133264
114	0xbc972f35	-0.018455127
115	0xbb9cba4b	-0.00478295
116	0x3cec2eca	0.028830905
117	0xbcb5d8f5	-0.02219818
118	0xbc3b924c	-0.011448454
119	0x3b068cdd	0.0020530738
120	0xbb8906bd	-0.0041817115
121	0x3dfa3cbe	0.12218617
122	0xbcf54b47	-0.029943122
123	0xbc722494	-0.014779229
124	0xbc901235	-0.017586807
125	0xbc281819	-0.010259652
126	0xbb8a7dbe	-0.0042264154
127	0xbbb68b1d	-0.005570783
128	0x3c4013bb	0.011723454
129	0x3d370457	0.044681873
130	0xbd1d2759	-0.038367603
131	0x3c326d91	0.0108903805
132	0xbd19c5eb	-0.037542265
133	0x3b0d0e25	0.0021523323
134	0x3cf483dd	0.029848034
135	0xbc438223	-0.0119328825
136	0xbb0eb4c9	-0.0021775237
137	0xbdb403a2	-0.087897554
138	0x3d96126e	0.07327734
139	0x3b809389	0.0039238376
140	0x3bc194ec	0.0059076454
141	0xbb9c34ab	-0.0047670207
142	0xbb882c30	-0.004155658
143	0x3b22df84	0.0024852464
144	0xbcd10833	-0.025516605
145	0x3b372e5b	0.0027951214
146	0xbc2d47b3	-0.010576176
147	0x3c168bd9	0.009188616
148	0x3c8426dc	0.01613181
149	0x3c7c74eb	0.015408735
150	0x3dc92eeb	0.09823402
151	0x3c0345c0	0.008012235
152	0xbca9c8ad	-0.020725572
153	0x3ca43043	0.020042544
154	0xbd54aaa3	-0.051920544
155	0xbc0c5340	-0.00856477
156	0xbbb799ab	-0.0056030354
157	0x37e1d379	2.6920565e-05
158	0xbc811b22	-0.015760008
159	0xbbb24338	-0.005440142
160	0x3c83ed74	0.016104437
161	0x3afa6df6	0.0019106257
162	0xbd20df33	-0.03927536
163	0x3a827ace	0.0009954812
164	0x3d0cdc25	0.034389634
165	0x3d24043e	0.04004311
166	0xbd1e14a0	-0.03859389
167	0x3a665c4a	0.0008787556
168	0xbab1d292	-0.0013566783
169	0x3b44f080	0.0030050576
170	0x3b9da877	0.0048113423
171	0x3b0c7b12	0.002143566
172	0xbba8eca2	-0.005155162
173	0xbb2d1e36	-0.0026415712
174	0xba709b04	-0.00091783726
175	0x3ac97205	0.0015369063
176	0x3c4fc75b	0.012681807
177	0x3cf3436b	0.029695233
178	0xbd3dc555	-0.04633077
179	0xbb61a016	-0.0034427694
180	0x3da0abde	0.07845281
181	0xba301f4c	-0.0006718531
182	0xbddfc514	-0.109262615
183	0xbb99ad17	-0.0046898234
184	0xbc3de8bc	-0.011591133
185	0x3cfbe3ee	0.030748334
186	0x3c6021bc	0.013679918
187	0x3c05aa99	0.008158349
188	0x3ca2d8c5	0.019878754
189	0xb90d77c5	-0.00013491425
190	0x3c08ca96	0.0083490815
191	0x3c214acc	0.009844493
192	0xbd033404	-0.032032028
193	0x3c6c0b37	0.014406971
194	0x3b3157c0	0.002706036
195	0x3c011e96	0.007880827
196	0xbc06888f	-0.008211269
197	0x3da6afa2	0.08138968
198	0xbdce3fde	-0.100707754
199	0xbbb4471a	-0.00550164
200	0xbd8b3fd0	-0.06799281
201	0x3d9525eb	0.07282623
202	0x3d9f55fc	0.07780072
203	0x3abe30b8	0.0014510369
204	0xbbfcfe9c	-0.0077207815
205	0xbc2f6a74	-0.010706533
206	0xbbd9115e	-0.006624385
207	0x3b111522	0.002213784
208	0x3b1b5c5e	0.0023706178
209	0xbc513722	-0.012769492
210	0x3b76f0b1	0.0037680084
211	0xb993deec	-0.00028204115
212	0xbcd55172	-0.026039813
213	0xbcecf803	-0.028926855
214	0x3d34db30	0.044154346
215	0x3b8fe852	0.0043917084
216	0xbd164d6a	-0.03669492
217	0xbb8206ff	-0.003968119
218	0x3d645b9a	0.05575142
219	0x3b0bd2cb	0.002133536
220	0xba2fb80c	-0.00067031453
221	0x3b6f590a	0.0036521577
222	0xbab3a5ad	-0.0013705991
223	0xbaae2240	-0.0013285354
224	0x3c9a4a14	0.018834151
225	0x3ba1ce26	0.004937905
226	0xbd20b9d1	-0.03923971
227	0xbc38fccc	-0.01129074
228	0xbcbc35ef	-0.022974936
229	0xbd058316	-0.032595716
230	0x3d3058a5	0.043053288
231	0xbcfca768	-0.030841544
232	0x3c7705e6	0.01507709
233	0x3dc296da	0.09501429
234	0xbc67172e	-0.014104648
235	0xbcf1e246	-0.02952684
236	0x3bb36b5b	0.0054754443
237	0x3c4db35f	0.012554972
238	0xbc662364	-0.014046524
239	0xbc4d665d	-0.012536612
240	0xbcc549f8	-0.024083123
241	0x3cda5878	0.026653513
242	0x3e17c491	0.14821078
243	0x3cdd0490	0.026979715
244	0xbdc0700a	-0.0939637
245	0x3cc11596	0.023569863
246	0x3e417170	0.18890929
247	0x3cac25eb	0.021014174
248	0xbd21041c	-0.03931056
249	0x3d2d3ff6	0.042297326
250	0x3debde3b	0.115169965
251	0x3c03e312	0.008049743
252	0x3bac7be0	0.0052637905
253	0x3caaacca	0.020834345
254	0x3be293a9	0.006914575
255	0xbcaa5ee4	-0.0207972

decompress.6.bias f4 [12]
0	0xbc3e97a6	-0.0116328355
1	0xbc1942ea	-0.009354332
2	0xbc20de70	-0.009818658
3	0xbbfe8460	-0.007767245
4	0xbac53535	-0.0015045764
5	0xbbb3cfbf	-0.0054874117
6	0xbb884456	-0.004158537
7	0xbc0a04ae	-0.008423967
8	0xbc4452c0	-0.01198262
9	0xbc227f95	-0.009918113
10	0xbc53dd03	-0.012931111
11	0xbc302d30	-0.010752961
